models/model (20, 10, 3) front=True epoch=20 batch_size=142578 lr=0.01.pt (torch, 44487 bytes, 8 tensors)

weight f4 [20, 500]
000000 24 f6 33 3d 7a 39 51 3c 1e d0 9b 3c 64 e0 6c 3d
       0.04393591 0.012770051 0.019020136 0.057831183
000010 4b f4 0f bc 0a 1c e9 ba a9 5e 2f 3c 0f 35 c3 3b
       -0.008786271 -0.0017784846 0.010703721 0.005957253
000020 6e 14 d8 3c fe 17 6e 3d 2d cb 85 3b 6f 0f 81 3c
       0.02637693 0.05812835 0.0040830583 0.01575443
000030 bb 01 90 3d 68 03 bd ba 30 01 ce 39 03 62 04 3d
       0.0703158 -0.0014420571 0.00039292267 0.032320034
000040 4e 4c ad 3b b2 9b 6d bc b0 0a 28 3d 02 79 1b 3c
       0.0052886372 -0.014502453 0.041025817 0.0094893
000050 ec 75 fb 3c b6 94 6b 3d 1e 53 4d bc ab 4f 2b 3d
       0.030695878 0.05751487 -0.012532024 0.041824024
000060 e2 b2 9c 3c 65 99 6e 3d 4b 06 0e bc 97 7f 8a 3d
       0.019128267 0.058251757 -0.008668493 0.06762617
000070 24 c0 d6 3a 5f cf b6 3c 78 9d a6 bb 7f e8 ae 3c
       0.0016384167 0.02231568 -0.0050846897 0.021351097
000080 da e0 c7 3c 30 13 3b 3d a7 db 11 3d aa d1 5a 3c
       0.02439921 0.045672596 0.035609867 0.013355652
000090 d8 74 53 3d f9 cb a8 3c 8d c8 5d 3d 74 56 83 bb
       0.051625103 0.020605074 0.05414634 -0.0040081087
0000a0 59 bd 9e 3c b9 f0 46 bc fd 87 6e bc b3 f8 c3 3c
       0.019377397 -0.012142354 -0.014558789 0.0239223
0000b0 92 4b 8e 3d e1 d5 5b bc 79 19 73 3d 85 e2 11 3d
       0.06948008 -0.013417692 0.059350464 0.035616416
0000c0 36 6c d6 3b 07 3a 62 3d 68 c9 e0 3c ef c9 fd 3c
       0.0065436615 0.05523112 0.027439788 0.030980079
0000d0 c1 51 ca 3b cd 7d 27 3c d9 62 6f 3d eb 5d 27 3d
       0.0061742966 0.010222864 0.058443878 0.04086105
0000e0 5f cc 3f 3d 04 5d 1a 3c ae b1 94 3c 2a ed ea 3c
       0.046825763 0.009421591 0.01815113 0.028677542
0000f0 74 31 04 3c 42 a2 0d 3d f8 58 9a 3c 32 b3 cc 3b
       0.008068431 0.03457857 0.018841252 0.0062469477
000100 de 98 b7 3c 42 02 78 3c 30 6b dd 3a eb 1d 44 3d
       0.02241176 0.015137257 0.0016892906 0.047880094
000110 be 6e 7b 3c b0 ca 1d 3a ed 06 28 3c f0 73 20 3d
       0.015346227 0.00060192775 0.0102555575 0.039173067
000120 20 ff b2 3c 08 4b e6 3c cf 21 64 3d f7 4e a4 3c
       0.021850169 0.02811195 0.055696305 0.020057185
000130 12 52 62 3c ae fd 79 3b 5c bb c3 3c 79 02 9e 3c
       0.013813512 0.003814559 0.02389305 0.019288288
000140 8a b4 24 3d bf ab 8e 3d 4d 01 20 3d ed 69 38 3c
       0.040211238 0.06966352 0.03906374 0.011255723
000150 58 7b 7f 3d b5 bc 8d 3d b3 be 84 3d 40 57 53 3c
       0.06237349 0.06920759 0.064816855 0.01289922
000160 fe c7 54 bb 85 de 6c 3d 53 d5 8e 3d 4d 3d 84 3d
       -0.0032467837 0.0578294 0.06974282 0.06457005
000170 24 ad 6d 3d af 11 40 3d 6f 57 49 3d f2 54 2c 3d
       0.058026448 0.046891864 0.04915565 0.042073198
000180 06 10 db 3c 62 7c 0d 3d 64 6d 8c 3d 2a 83 b6 3c
       0.026741039 0.03454245 0.06856802 0.02227934
000190 fd 21 86 3d dd b6 0d 3d fc 42 58 3d 8e 21 0c 3d
       0.065494515 0.03459822 0.052798256 0.034211688
0001a0 55 bd 85 3c 45 95 6c bc 3d 71 69 3d fa d2 11 3b
       0.016325632 -0.0144398855 0.056992758 0.0022250996
0001b0 94 26 fd 3c b2 bd 30 3d 3b eb 3f 3d 34 42 7d 3a
       0.030902185 0.043149658 0.046855193 0.0009661049
0001c0 04 da 8e 3d 42 ce 91 3d 18 7c 5a 3d 98 23 1d 3d
       0.06975177 0.07119419 0.053341 0.038364023
0001d0 ac 8a 42 3d 8d 23 3f 3c d2 8f d5 bb 90 e3 1e 3c
       0.04749553 0.011666191 -0.006517389 0.00969781
0001e0 24 e6 80 3d 51 f8 bd bb 94 fa 0d bc 92 15 90 3c
       0.06293896 -0.005797424 -0.0086656995 0.01758841
0001f0 de 68 68 3d e9 ec 6c 3d 88 b4 67 3d 34 bf e7 3c
       0.056740634 0.057843123 0.056568652 0.028289415
000200 e6 9e 04 3d 0d de a8 3b 20 f7 88 3d f9 b3 28 3d
       0.0323781 0.0051534236 0.0668776 0.04118726
000210 dd ab 40 bc 4d 4b 50 3d 17 6e 37 3d ad 5e 6a 3c
       -0.011759725 0.050853062 0.044782724 0.014304799
000220 04 db 8d 3c 21 c4 c0 3c 7c 57 ae 3c 26 a1 13 3d
       0.017316349 0.023531022 0.02128195 0.036042355
000230 cc 56 90 3c 0c 18 f6 3b b8 41 55 3c 3c 09 1c 3d
       0.017619513 0.007510191 0.013016157 0.038094744
000240 d2 b0 8d 3d 1d 18 8d 3d 50 79 2a 3c 6b ac 51 3c
       0.069184914 0.06889365 0.0104049 0.012797455
000250 47 23 8c 3d 0a 83 75 bc fd 1b 17 3d 03 da d9 3b
       0.06842666 -0.014984855 0.036891926 0.0066483035
000260 bb 62 90 3c 98 d0 4f 3d 84 fd a3 3c c1 c9 fc 3c
       0.017625203 0.05073604 0.020018347 0.030857923
000270 6a 6e 3c 3d a2 12 e5 bb 04 af 59 3d 4a 36 3b 3d
       0.046003737 -0.0069907466 0.053145424 0.04570607
000280 36 8e 98 3a c7 2e 9b 3c c4 c2 02 bc 89 1b 97 3d
       0.0011639062 0.018943204 -0.007981006 0.07378299
000290 aa eb 80 3d 06 4e 84 3d 81 75 d9 3c 4e 1a 87 3d
       0.06294949 0.06460194 0.026545288 0.06596814
0002a0 05 04 3a 3d 8b 6c 84 ba a4 7e 81 3d 8c 9f 4d 3a
       0.04541399 -0.0010103149 0.06322983 0.0007843904
0002b0 81 ba 49 3c 88 2b 16 3d dd 23 e8 3c 44 8d 70 3d
       0.012312532 0.03666261 0.028337413 0.05872847
0002c0 37 ee 54 3d 3a f3 94 3d 0f 5f 96 3d cd 3f 24 bb
       0.051984992 0.07272954 0.0734235 -0.0025062442
0002d0 30 c4 c6 bb 23 52 73 3d 25 33 7c bc 64 b2 b1 3c
       -0.006065868 0.059404504 -0.015393053 0.021691509
0002e0 ca 39 46 bc 24 01 68 3c cf 94 63 3d 2c 7d 74 3d
       -0.012098739 0.014160428 0.055561837 0.059689686
0002f0 96 01 ae bb 66 9b 4b bc a3 1d 21 3d 95 0b 4d bc
       -0.0053102477 -0.012427187 0.039334904 -0.012514968
000300 f1 cb 44 3c 44 a6 37 ba 67 25 1c 3d b5 38 77 bc
       0.012011514 -0.00070056715 0.038121607 -0.015089204
000310 94 c6 49 3a c0 65 2b b8 56 8b 57 3d a2 1a 41 3d
       0.0007697132 -4.086434e-05 0.052623115 0.04714454
000320 6e 45 5d 3c 4c 8e 9a 3a 7e c9 ba 3b e4 3d 83 3d
       0.013505323 0.0011791675 0.0057002893 0.06408289
000330 41 3e 09 3d 63 77 2b 3c 8f 8e 3c 3d 6a 36 15 3d
       0.033506636 0.010465476 0.046034392 0.036428846
000340 ef 0b 8c 3c 5d e7 3e 3d 12 11 47 3d f2 8a 74 3b
       0.017095534 0.046607364 0.048600264 0.0037314263
000350 34 ac a5 3b 1a 45 92 3d b6 1a a2 bb 50 eb f4 3b
       0.0050559286 0.07142086 -0.004947032 0.0074743405
000360 6f 37 4e 3d 00 cb 5b bc 3e 42 9d 3b 78 a6 51 3b
       0.050345834 -0.013415098 0.0047991564 0.0031990092
000370 98 92 3a 3d ca a2 5b 3c d8 56 84 3d 0b c0 c9 3c
       0.04554996 0.013405511 0.06461877 0.024627706
000380 2d 9d 3f 3c 7f 42 7e 3c a5 00 1c 3d 04 eb 67 3c
       0.0116951885 0.015518784 0.038086552 0.014155153
000390 43 c1 03 bc 86 18 7b 3d 9c 4d 85 3d 18 5a 75 3a
       -0.008041683 0.061302684 0.065089434 0.00093594333
0003a0 94 d3 56 3d db a4 cf 3b c2 8b 85 3a ac 1c 85 3d
       0.05244787 0.006336791 0.0010188746 0.06499609
0003b0 d2 98 89 bc 7b 55 38 3d 54 e9 27 3d 2c 97 88 3b
       -0.016796503 0.045003396 0.040994003 0.0041684117
0003c0 5e f0 31 3d ae 68 81 3d a9 6f 1e bc 5d af 2f 3d
       0.043442123 0.06318794 -0.009670177 0.04289185
0003d0 8f d9 5d 3d 2f 43 fe 3c 48 32 d2 3c de 20 81 3d
       0.05416256 0.031037895 0.025658742 0.06305097
0003e0 40 5f 19 bc a2 3f c2 3c 6f 81 70 3d 7f 15 2d 3d
       -0.009361088 0.023711983 0.058717187 0.04225683
0003f0 0a 26 83 3d 6a b4 71 3c f0 9e c7 bb 2c 04 88 bc
       0.0640374 0.014752487 -0.006091945 -0.016603552

bias f4 [20]
000000 3b ce e2 bd 89 70 84 bd 99 18 6b bd eb 42 cf bb
       -0.110744916 -0.06466777 -0.057396505 -0.006325116
000010 47 0f 88 3c d2 14 89 3b 98 fa f3 3c c4 1b ac bd
       0.016608847 0.00418339 0.029782578 -0.084037334
000020 01 6a ad bc 4d bf 8b bc fe 82 4e 3d 5c 6d 95 bd
       -0.02116871 -0.017058993 0.050417893 -0.07296249
000030 50 88 1b bd 91 48 85 3c 39 da ba bc d7 a8 9b bd
       -0.037971795 0.016269954 -0.022809135 -0.07600563
000040 c7 94 f4 bd fc a0 5b bd 34 14 b0 bc 3f 3c 9b bc
       -0.119424395 -0.053620324 -0.021494009 -0.018949626

weight f4 [10, 20]
000000 a5 3f d2 bc 02 78 84 be fd 80 d0 bd 31 75 f9 3d
       -0.025665114 -0.2587281 -0.101808526 0.121805556
000010 72 49 d9 bd c8 46 1d 3d 41 ec 5d be 84 0c 09 be
       -0.10609712 0.03839758 -0.21672155 -0.1338368
000020 35 39 89 bd 9b ec 58 bd 7d a1 8b be 74 75 43 bd
       -0.067003645 -0.05296002 -0.27271643 -0.047719434
000030 48 2a ee bc 31 fe 6a 3e 35 df b8 bd c6 66 e5 3d
       -0.029072896 0.22948529 -0.09026948 0.11201243
000040 17 82 b4 bd 60 e0 b8 3b 18 7b a5 3d 50 70 c8 bd
       -0.08813875 0.005641982 0.08080119 -0.09787047
000050 10 a1 79 3d ab 9a 43 3e f5 ca 4c 3d cc 66 52 be
       0.060944617 0.1910197 0.049998242 -0.20547026
000060 6c 1f 3a 3e 04 c9 46 3e a9 cf 97 3d cf 56 41 3d
       0.18176049 0.19412619 0.07412655 0.047201928
000070 5b 1a 3c 3c 6d a8 86 bd 24 7c fa bd d2 3a 98 bd
       0.011480893 -0.065750934 -0.12230709 -0.07433094
000080 bd 6b aa 3d d8 08 c7 bc e2 e4 35 be fe 5a bc bd
       0.08321331 -0.02429621 -0.17763093 -0.09197043
000090 d2 8e 70 3d c1 c2 1a 3e da 72 9c 3e 20 48 60 3e
       0.058729954 0.15113355 0.30556375 0.21902514
0000a0 5a 86 a8 bd 85 53 93 3e 30 9a 29 3e c9 ee 0c 3e
       -0.082287505 0.28774658 0.16562724 0.13762964
0000b0 fa ab 2e 3e b3 f1 50 bc e8 26 ec 3c 12 60 08 be
       0.17057791 -0.012752938 0.028827146 -0.13317898
0000c0 53 4e 38 bc 38 70 d9 bd da 25 62 3e ef ab c5 bd
       -0.011249143 -0.10617107 0.22084752 -0.09651934
0000d0 b3 2a 81 3e 2d 69 2d 3c a9 27 6b 3e b0 83 48 bc
       0.2522789 0.010584158 0.22964348 -0.012238428
0000e0 0e 5b 65 3e 95 95 16 be f6 8e 5d 3e 1a ee 1d 3e
       0.22398016 -0.14705499 0.21636567 0.1542286
0000f0 47 f1 4e bd 0d 0f 0d 3d 40 eb 81 be 4e 92 b8 bd
       -0.05052307 0.03443818 -0.25374794 -0.090122804
000100 7d 61 cc bc fa 98 dd 3d fc 96 5d 3d 2e c7 1e 3e
       -0.02494883 0.108201936 0.054099068 0.15505669
000110 80 37 71 be 4f ef 42 3d 00 a1 15 bd d9 a5 80 be
       -0.23556328 0.047591504 -0.036530495 -0.25126532
000120 30 a7 8e bd 77 cb 29 be f9 6d e8 3d 60 ac 2c be
       -0.06965482 -0.16581522 0.113491006 -0.16862631
000130 eb 39 06 3e e4 d4 47 be 0f d5 1e be c2 d3 90 bd
       0.13108031 -0.19514805 -0.15510963 -0.070716396
000140 13 42 d4 3d b0 b0 31 bd f8 56 97 3c b1 a0 8f be
       0.10364165 -0.043381393 0.018474087 -0.28052285
000150 e5 70 0e 3e 49 e2 14 be 6d 05 0b 3e 6a 9c ea 3c
       0.13910253 -0.14539446 0.13576289 0.028639037
000160 00 43 7b 3d 5a 1c 44 be 25 c5 8a be 88 9a 24 3e
       0.061343193 -0.1915144 -0.27103534 0.16074574
000170 d0 85 fc 3a e1 21 47 be 18 ab 91 bd 5a 68 67 bd
       0.0019265953 -0.19446518 -0.07112712 -0.056496
000180 04 63 85 be 9e 00 79 be 49 7e c9 3d 2e 6a b0 bd
       -0.26052105 -0.24316642 0.0983854 -0.08614002
000190 18 79 a3 bd e6 8f e9 3c e3 74 d8 bc 1f 7a d4 bd
       -0.07982081 0.028510999 -0.026422923 -0.10374855
0001a0 5c c7 27 bc f2 e4 88 3e 24 da 11 3d a3 8e e0 bc
       -0.010240402 0.2673717 0.035608426 -0.027411764
0001b0 1b df ff bd ba bb 47 bd 0c 35 7e 3d 1b 32 bb bd
       -0.12493726 -0.048763014 0.06206231 -0.09140416
0001c0 27 86 ab bd e9 0e c2 3d 2e 85 2b 3e a5 ef 99 bd
       -0.08375197 0.094755 0.16750023 -0.07516412
0001d0 f7 1e 10 3e 71 f2 19 3e 06 a6 bf bd ba 65 80 be
       0.14074312 0.1503389 -0.09357838 -0.2507761
0001e0 88 a7 61 bc b0 96 15 3d ef 99 1d 3e 95 b7 55 be
       -0.013772853 0.03652066 0.15390752 -0.20870812
0001f0 7d e2 3d be c7 d2 53 be 39 25 8d be 3c 44 fb bd
       -0.1854343 -0.20685874 -0.2756746 -0.12268874
000200 d8 24 b0 3c 5e ff c9 3d 2c 3b ed bd 23 19 16 3e
       0.021501943 0.098631606 -0.11583552 0.14658026
000210 20 cb 1d bd bf 7e 76 3d 18 da a2 3d 11 61 a4 3d
       -0.038523793 0.06017947 0.07951754 0.080263264
000220 73 9f 4a bc f3 e8 22 bd 85 5f e6 3d 1b ca 30 3e
       -0.012367117 -0.03977294 0.11248688 0.17264597
000230 08 f0 61 bd 65 02 0f be 20 3b d0 bc 33 59 5b bd
       -0.055160552 -0.13965757 -0.025418818 -0.053551864
000240 90 d1 8b bd 68 21 da bc 78 d6 89 bd 58 4a 1e 3d
       -0.0682708 -0.026627257 -0.0673036 0.03864512
000250 12 f2 2e 3d eb 58 ee 3d 17 98 4d be a5 d4 d8 bd
       0.042711325 0.116380535 -0.20077549 -0.10587434
000260 5c a6 38 3c 32 47 af bd f6 1f 13 3e 94 99 08 bd
       0.011270132 -0.08558501 0.14367661 -0.03334959
000270 9d 7b e5 bd e0 7a d5 bd 5e 5d 51 bd cd fe cc 3d
       -0.11205218 -0.10423827 -0.051114433 0.10009537
000280 3d 58 29 3e 82 a6 68 3c a0 da fd 3c b0 3b 2f be
       0.16537566 0.014199855 0.030988038 -0.17112613
000290 a6 30 85 3c 9f 65 64 3e fd be 37 bd a8 b4 92 3d
       0.016258549 0.2230439 -0.044859875 0.07163364
0002a0 d4 a8 81 bc 22 4d c8 3d 58 cf 85 bd 22 28 30 be
       -0.015827574 0.09780337 -0.06533688 -0.1720281
0002b0 5f 28 f2 bd da 21 a9 3d 2f 61 56 3c 55 d2 72 be
       -0.118241064 0.0825841 0.013084694 -0.23713048
0002c0 0a 9a 67 3e c3 ef a0 3c 31 6a 5b be ab ad bd bd
       0.22617355 0.019645577 -0.21427228 -0.0926164
0002d0 be b2 5a 3e e6 7e 12 be a1 54 83 bc d0 19 38 3e
       0.21357247 -0.1430622 -0.016031565 0.17978597
0002e0 1f a7 83 3e 86 1b c6 3d e4 81 8b 3e bf 64 0a 3e
       0.2571344 0.096732184 0.27247536 0.13514994
0002f0 50 4d 8f 3e 22 68 88 bc 99 f0 78 bd 98 a8 fa bd
       0.27988672 -0.016651217 -0.060776327 -0.12239188
000300 15 ed da bc 05 ed 3a be da 42 a5 bd 02 75 46 bd
       -0.026724378 -0.18254478 -0.080693915 -0.04845143
000310 73 a8 2a 3d 7f 2d d2 bd 44 ce 6f 3e 57 0e eb bd
       0.041664552 -0.10262584 0.23418528 -0.114773445

bias f4 [10]
000000 55 85 16 3e bd 5c d7 bd 57 df 71 3e 4c 8d 08 bd
       0.146993 -0.10515735 0.23620354 -0.033337876
000010 a7 87 99 3d 79 3b a0 3d 35 85 17 be ef 96 60 3d
       0.07496577 0.078238435 -0.14796908 0.05483144
000020 d8 5e a8 bd 37 e3 75 bd
       -0.08221215 -0.060031142

weight f4 [3, 10]
000000 26 59 37 bc 55 20 d4 bd bf db 05 be a8 f3 af bc
       -0.011190688 -0.10357729 -0.13072108 -0.021478489
000010 26 e9 2b 3e 1e ea f0 bc b8 fd a3 3a 3e b7 8b 3e
       0.16788158 -0.02940851 0.0012511527 0.2728824
000020 8f 34 4a 3e 4c f0 94 be 4c 4b b0 3b ee 00 28 3d
       0.19746612 -0.29089582 0.00538007 0.04101651
000030 ba b9 fe bd ef 17 9d 3d 54 d2 42 3d 73 d8 31 be
       -0.12437768 0.076705806 0.047563866 -0.17367725
000040 e0 3e 62 3e 00 19 8d 3c 3c 36 41 be 9d b1 d8 bd
       0.22094297 0.017223835 -0.18868345 -0.10580752
000050 cc ba 7f bd 74 20 20 be a8 2f 9b be 82 e7 69 bc
       -0.062434003 -0.1563738 -0.30309796 -0.014276387
000060 c8 7d 3d bd cb 7f 8e be 01 0e 13 bd 2a 15 3a be
       -0.046262532 -0.27831873 -0.035902027 -0.18172136
000070 67 b6 4d 3e 2d d9 a2 3e
       0.20089112 0.31806317

bias f4 [3]
000000 78 de 05 3e b5 69 35 bc 82 9d 4a be
       0.13073146 -0.011072566 -0.19786647

weight f4 [2, 3]
000000 79 c7 96 be de 08 a3 be da 56 e8 3e 2b 9f 5f 3e
       -0.2944906 -0.31842703 0.45378762 0.21838062
000010 ec 26 91 be 80 13 f3 be
       -0.28350008 -0.47475815

bias f4 [2]
000000 45 1b 8c be 21 b7 05 be
       -0.27364555 -0.1305814
