models/model (100, 40, 10) front=True epoch=20 batch_size=71289 lr=0.001.pt (torch, 221775 bytes, 8 tensors)

weight f4 [100, 500]
000000 8d c4 1e bd f8 69 5c bc d9 24 33 3d 1c f7 0e 3d
       -0.038761664 -0.013452999 0.043736313 0.03490363
000010 cc d1 13 3d d0 18 2b 3d b1 09 63 3c 7a 42 44 3c
       0.03608875 0.04177171 0.013857291 0.01197874
000020 cb a0 2d 3d 0f a9 8d 3c 62 16 21 bd 0c 25 dc 3c
       0.042389672 0.017292527 -0.039327987 0.026873134
000030 b4 4e d3 bc 2c e5 9c ba 97 e9 32 3d 26 50 47 bb
       -0.025794365 -0.0011970154 0.0436798 -0.0030412762
000040 a8 e9 a1 bc cd e6 32 3c 21 7e f0 bb 22 61 0a bd
       -0.019764736 0.010919285 -0.0073392545 -0.03378404
000050 4c 86 1d 3d f2 8f 12 bc 92 14 2d bd ed 88 30 3d
       0.038458154 -0.008945452 -0.042255946 0.043099333
000060 72 1f a1 3c 4a d4 0a 3d d7 b8 10 3d 25 af 6c 3c
       0.019668315 0.03389386 0.035332527 0.014446055
000070 3d 42 8b 3c df 8c 73 3c 86 77 d2 bb 97 aa 1f 3d
       0.016999358 0.014865129 -0.0064229397 0.038981047
000080 eb 23 b8 bc 24 1a cc bc 6f e0 04 3d 87 4f 8b 3c
       -0.022478065 -0.024914809 0.0324406 0.017005695
000090 fe 08 10 3d ce 81 1c 3d 3f 01 22 3d d7 9f 16 3d
       0.035164826 0.03820973 0.03955197 0.03677353
0000a0 5f cb 1e bd fb 52 30 bc 3d 59 36 3d d8 20 af bc
       -0.03876817 -0.010761972 0.044518698 -0.021377966
0000b0 1c 34 c9 bc 1b c9 3e ba e0 4e e6 bb 73 fd 86 bc
       -0.02456098 -0.0007277892 -0.0070284456 -0.016478276
0000c0 47 a3 8f 3c 30 9e 30 3d 70 89 8a bc c6 94 ea bc
       0.017533911 0.04311961 -0.016911238 -0.028635394
0000d0 d9 d1 4f 3c f6 8a 29 3d 6f 79 8b bc ee 46 f9 3b
       0.012684309 0.04139229 -0.017025677 0.0076073324
0000e0 aa 40 e2 bc ef 2b e3 bc 9c 25 e1 bc e2 eb 17 3c
       -0.027618725 -0.02773091 -0.027483754 0.009272547
0000f0 69 07 c5 3c dd e3 a6 bc 1c 1b 15 bd 88 11 6f 3c
       0.024051385 -0.020372326 -0.036402807 0.014591582
000100 5e c6 28 bc 36 e7 38 bc cc bb 47 bb 21 af 27 bc
       -0.010301201 -0.011285594 -0.0030476926 -0.010234625
000110 7d 1e a3 bc 38 07 f5 bc 43 19 05 3c 0b d2 f6 bc
       -0.019911999 -0.029910669 0.008123699 -0.030129453
000120 3e e9 9c bc 35 c3 a8 bc f0 2b c4 bc 08 53 17 3d
       -0.019154187 -0.020600894 -0.023946732 0.03694442
000130 be 9a df 3c 9a 93 5b 3c 3e 73 a6 bb 0f 71 3e bb
       0.027295467 0.01340189 -0.005079656 -0.0029059087
000140 94 6c dd 3c fc 95 a4 bb 57 3d 8b bc c8 d6 48 bc
       0.027029313 -0.0050227623 -0.016997023 -0.012258239
000150 bd dd 88 3c 54 6a 8e bb fa 8c 48 39 f4 3e bb bb
       0.016707296 -0.0043461714 0.00019126004 -0.0057142917
000160 79 e9 8f bc 65 31 16 bd 81 01 c1 bc da f7 86 bb
       -0.017567383 -0.0366682 -0.023560287 -0.0041189017
000170 f4 bc 55 3c b1 b4 d8 3c fe 1f fd ba 6b 4b 0c 3d
       0.013045538 0.026453348 -0.0019311903 0.03425161
000180 91 57 12 bd 42 58 db 3c 3d 04 82 3c 11 8b 0e 3c
       -0.03572804 0.026775483 0.015871162 0.008700148
000190 28 14 8e b9 c0 b6 01 bd 8c dc 1e bd a2 e9 cc bc
       -0.00027099368 -0.031668425 -0.03878455 -0.025013749
0001a0 96 dd fb bc 6e d5 ea bc 19 49 bf 38 d4 23 05 bd
       -0.030745309 -0.028666224 9.121205e-05 -0.03250487
0001b0 20 84 17 3d bb 76 42 bc 14 d8 54 bc 04 cd 7b ba
       0.03699124 -0.011869128 -0.01299097 -0.000960544
0001c0 0a dc a4 bc b0 4a 0a 3d 36 fd 97 3b 7f 75 c8 3c
       -0.020124454 0.033762634 0.0046383394 0.024470089
0001d0 8b 16 68 bb 70 00 1e 3d ad 04 25 3d 89 40 9d 3b
       -0.0035413827 0.038574636 0.040287662 0.004798953
0001e0 7b fb 2a 3d 27 35 02 3d 31 90 10 3d 52 53 a5 3c
       0.041743737 0.03178897 0.03529376 0.020181332
0001f0 6d e4 36 bc 56 2c 07 bd cf 8f 00 bc d4 d4 ac ba
       -0.011162859 -0.033001266 -0.007846787 -0.0013185986
000200 09 c2 02 3d d9 64 33 3d 1f 8f 53 bc 11 95 2a bd
       0.031923328 0.043797348 -0.012912541 -0.041646067
000210 e8 5e 07 3d 3f 7b 30 3c 0a 7c 8e bc 79 58 aa bc
       0.033049494 0.010771572 -0.01739313 -0.02079414
000220 ff 55 6d 3c b9 46 08 3d 9d 7f af 3c 34 ee 16 3d
       0.014485835 0.03327057 0.021423155 0.036848262
000230 b5 15 a1 bc 9d ad 2c bd 7b 74 12 bc f4 72 3c bb
       -0.019663671 -0.042157758 -0.008938904 -0.002875504
000240 12 c5 be 3c f3 16 7b bc a9 c9 a8 3c c1 24 e1 3c
       0.02328733 -0.015325296 0.020603972 0.027483346
000250 b5 9f ff bc 1e 57 6b bc 02 f4 db bc 07 7e ac 3c
       -0.031204084 -0.014364032 -0.02684975 0.021056188
000260 01 fb 06 3d 7b 30 bb bc d9 6e e4 3c 7c 5e d3 3b
       0.03295422 -0.022850266 0.027884888 0.0064504724
000270 84 f6 ae bc fa ce fc bc 8e 4c 33 3d ef 68 12 bd
       -0.021357782 -0.030860413 0.04377418 -0.035744604
000280 89 b4 ff 3c e8 6c 33 3d 1d 9e d1 3c 5a 17 d2 3c
       0.031214016 0.043805033 0.02558809 0.0256459
000290 9e 60 08 3c 39 9b bb 3c 65 4c aa bc 2b cd d2 3c
       0.008323817 0.022901164 -0.02078838 0.025732597
0002a0 14 dc 0c bc ca ee 4a bb b4 db d2 bc 1c 61 cd 3b
       -0.008597393 -0.0030965083 -0.025739528 0.00626768
0002b0 81 0f 0a 3c c4 59 e1 3c 54 07 20 bd c0 cc 1d 3d
       0.008426548 0.027508624 -0.03906949 0.038525343
0002c0 67 40 b3 3c 3a 2e 15 bd 7a 88 c2 bc fc 7d 33 bd
       0.021881295 -0.03642104 -0.023746718 -0.04382132
0002d0 25 c9 b1 3c 43 f8 36 bd 1a c3 ae bc 97 b9 1d bd
       0.021702358 -0.044670355 -0.021333266 -0.03850707
0002e0 b3 57 2b 3d f3 52 64 bc ec 17 cb bb a0 b8 de bc
       0.041831683 -0.013935792 -0.00619792 -0.027187645
0002f0 d7 8c e3 bb df 74 e5 bc ad 78 2d 3b cd b9 7d bb
       -0.0069442797 -0.02800983 0.0026469633 -0.0038715482
000300 7f 86 d4 3c 2c 23 1f 3c 10 9d 2b bd 66 38 fc bc
       0.025943039 0.0097129755 -0.041897833 -0.030788612
000310 7a 8b 2c 3d 1b 73 b1 bb 0a 54 91 b9 80 8e 37 bd
       0.042125203 -0.005415333 -0.0002771917 -0.044813633
000320 ea 8e 39 bd 3e ba 30 3d 8b fb 85 3c 32 a4 8b 3c
       -0.04530231 0.043146364 0.016355297 0.017046068
000330 98 39 91 3c 7d 32 b7 3c 34 5c 79 bc 56 b6 9d 3c
       0.017727658 0.022362942 -0.015219737 0.019251984
000340 f2 34 15 bd 0c 23 86 3c 6d 79 0c 3d 4e 54 14 3d
       -0.036427446 0.016374134 0.03429549 0.03621321
000350 b3 52 19 3d a8 c3 0d bd e4 53 01 bd 84 ce a0 bc
       0.037432384 -0.03461042 -0.031574145 -0.019629724
000360 f7 d5 26 bd dc 9e 47 3c 64 4a d7 3c 15 00 89 3c
       -0.040731397 0.012183871 0.02628059 0.016723672
000370 40 ba 02 bd 8d f2 33 bd 7a 64 47 3c 82 fd ec bb
       -0.031915903 -0.043932486 0.012169952 -0.007232369
000380 bd 93 c5 3b 5d 3e 4e 3c 74 7c b9 3b 93 43 87 bc
       0.0060295747 0.012588111 0.005660588 -0.016511714
000390 22 7e 23 bc 3d d8 bf 3c e8 30 0e 3d a0 06 0d bd
       -0.009978803 0.02341854 0.03471461 -0.034430146
0003a0 d3 14 3f bc d0 d9 91 3c 9b e7 2d bd 6f b2 71 3c
       -0.01166268 0.017804056 -0.042457204 0.014752015
0003b0 db 3e 53 3c d7 61 cc bb 67 b2 49 3c 1f 4b 2b bc
       0.012893404 -0.0062372494 0.012310601 -0.010454922
0003c0 44 3d 8d bc c1 c2 b7 3a 65 0e 52 3c e0 4a 06 3d
       -0.017241128 0.0014019833 0.012820815 0.03278625
0003d0 06 cd bf bc 1f 21 f6 ba d9 1a 02 3c ef 34 65 3c
       -0.023413192 -0.0018778181 0.007940971 0.013989671
0003e0 e2 b8 c2 bc 52 5c 07 bc 4d 98 5b bc a3 61 b1 bb
       -0.0237698 -0.008261757 -0.013403011 -0.0054132505
0003f0 31 bc 1f bd 49 5a f6 3b 09 af 06 3d 90 ed d6 3c
       -0.038997833 0.007518087 0.03288177 0.026236326

bias f4 [100]
000000 76 f1 25 3d 60 0d 1e 3d 68 03 10 3d ad b8 08 bc
       0.04051348 0.038586974 0.0351595 -0.008344811
000010 2f 6c 28 3d f1 42 a3 bb 18 f2 b6 bc 70 46 a1 bc
       0.041118797 -0.0049823453 -0.022332236 -0.019686908
000020 9a 8d af bc 6a 3a 89 3c 07 95 b0 bc c3 aa 60 bc
       -0.021429826 0.016751487 -0.021555437 -0.013712588
000030 06 34 8f 3c 40 82 1c 3d a3 2a 0f bd 12 fe 55 3c
       0.017480861 0.038210154 -0.03495277 0.013061063
000040 0a 0f 2e bd c0 47 11 bc 58 04 52 3d 45 92 18 bc
       -0.04249481 -0.008867204 0.051273674 -0.009312217
000050 4e a1 5a 3c 2e 6f 8c bc 0f 16 27 bd 14 6e 13 bd
       0.013344122 -0.017142858 -0.04079252 -0.03599365
000060 61 18 2b bd 53 bc ad bc 67 2b d7 3b 6f 9b 46 3d
       -0.041771296 -0.021207964 0.0065664533 0.048488077
000070 64 7e 6f 3c d6 6d 59 3d 3a 20 22 3d 1a 92 65 bc
       0.014617536 0.053083263 0.039581515 -0.014011884
000080 de 81 8f bb 82 2c 99 bc 75 ed 55 bd 5b b2 ff bc
       -0.004379495 -0.01869798 -0.05222841 -0.031212976
000090 f3 8a 39 bd f2 ec 3a 3c 9e 92 3f b7 8b 05 06 3d
       -0.045298528 0.011409031 -1.1418624e-05 0.03272013
0000a0 0a 10 28 bc ea 7a c6 ba 1f a7 05 bd 88 13 89 bc
       -0.01025773 -0.0015142832 -0.032630082 -0.016732946
0000b0 b6 9f d8 bc bb 9b 2b 3d 48 71 4b bd 6a 22 a0 3b
       -0.026443344 0.041896563 -0.04966858 0.004886915
0000c0 ae 63 52 bc d2 f3 6c 3b 92 62 27 3b 4a 2f 0f 3c
       -0.012841148 0.003615607 0.002554093 0.008739302
0000d0 7c c5 71 3c f5 81 9d bc 34 10 38 3b 3f 18 36 3d
       0.014756557 -0.019227007 0.002808583 0.044456717
0000e0 4a 82 14 bd bd 21 98 bc 47 02 95 3c 16 e9 c1 bc
       -0.036257066 -0.018570775 0.018189562 -0.023670714
0000f0 03 d7 ed 3c 84 d9 fa 3c 2d 05 5e 3b 65 4f 17 bb
       0.02903319 0.030621298 0.0033877597 -0.0023088094
000100 65 c8 21 3d f7 58 93 3c a9 0c 2f 3d 92 c1 0e 3d
       0.03949775 0.017986758 0.042736683 0.03485257
000110 92 d8 54 3c 13 e3 9e bc 8f 99 f4 bc be c0 cc 3c
       0.0129910875 -0.019395387 -0.029858379 0.02499425
000120 bc 70 9c 3a dd a8 13 3d bf e7 74 bb 57 ad 89 3a
       0.0011935453 0.036049712 -0.0037369577 0.001050393
000130 63 67 05 3d 72 fd fa 3c c4 6e 24 3c 8a 08 c9 bc
       0.0325693 0.03063843 0.010036174 -0.024540205
000140 bc 8f b9 bc 5f 35 2b bc 5a 67 3d 3d 5d 54 26 bd
       -0.022651546 -0.010449736 0.04624114 -0.0406078
000150 05 7b 27 bd 12 9d 49 3d ed 4f e3 bc 7a ed 09 3c
       -0.040888805 0.04922206 -0.027748073 0.008418435
000160 b7 c9 39 3c 92 fe 2b bc a9 0a 4d 3c 3b 4a 56 bc
       0.0113395965 -0.010497706 0.012514749 -0.013079221
000170 00 3d ce 3b da d2 b3 bc 99 21 55 3c 19 68 46 3c
       0.006293893 -0.021951128 0.013008499 0.01210978
000180 27 7e 10 bc 90 27 e9 ba 05 c2 2a bd a9 a6 12 bd
       -0.00881914 -0.001778828 -0.041688938 -0.03580347

weight f4 [40, 100]
000000 26 eb 90 bd 1e 95 71 bd ae 3a a0 bd 11 fe 5d bd
       -0.07076101 -0.0589801 -0.07823692 -0.054197375
000010 43 ad b8 3d de 69 b2 bd 6e fe 2e 3d 12 82 e8 bb
       0.09017422 -0.08711599 0.04272311 -0.0070955837
000020 72 9e e7 bc 8e b9 42 bd 54 a7 07 bd 9e 4c b4 3c
       -0.028273795 -0.04754024 -0.03311856 0.02200919
000030 dd 92 17 bd 06 4f 77 3d 9e 37 b2 ba f9 e0 b7 bd
       -0.037005294 0.060378097 -0.0013596897 -0.08978457
000040 5f 86 d3 3d 3a ab d3 3c 10 39 7d bc 7b 8a c4 3d
       0.103283636 0.025838483 -0.015455499 0.095967256
000050 c5 97 19 bd e0 03 64 bc 3a a8 10 bc 6d 8c 71 3c
       -0.037498254 -0.0139169395 -0.008829171 0.014742953
000060 1d cb 90 bd d2 f0 22 bd 90 88 c1 3c e6 51 13 3d
       -0.07069991 -0.039780445 0.023624688 0.035966776
000070 d0 34 17 3d 19 56 e1 3a 4b dd b5 3d 9a 49 d2 3d
       0.0369156 0.0017191797 0.08880099 0.10267945
000080 ec e8 a6 bb 97 41 ae bc 94 e4 6c bd 4c 95 92 bd
       -0.0050936844 -0.02127151 -0.057835177 -0.07157382
000090 ed 85 83 3d f7 96 82 3c a1 86 b0 bd b6 ec 71 3d
       0.06422029 0.015941126 -0.086194284 0.059063636
0000a0 31 1a 82 bd d5 39 8f 3d 8f 77 81 bc fa dd 70 bd
       -0.06352652 0.069934525 -0.01580408 -0.058805443
0000b0 e9 87 92 bd d6 93 b1 3d ba 3d fa 3c 97 37 9f bd
       -0.07154829 0.086707756 0.030547012 -0.07774275
0000c0 76 01 94 bd 5e e2 80 bd 7a 5c d7 bd b3 37 83 3d
       -0.07226841 -0.06293176 -0.105156854 0.06407108
0000d0 29 46 f9 bc 34 af 00 3d b7 90 bc 3d 33 f5 e2 bd
       -0.030428963 0.031417087 0.0920729 -0.11081924
0000e0 25 dd b2 bd a4 db cc bc 5a 3e 08 bc df 22 c8 bd
       -0.08733586 -0.025007077 -0.008315647 -0.09772276
0000f0 bf de a4 ba fe b6 74 3d 9b 83 4c bc fe 0f 8c bd
       -0.001257859 0.059744827 -0.012482549 -0.06838988
000100 fe 0a 9c bd 69 30 86 bc 58 92 8f 3b 0e f1 8b 3b
       -0.07619284 -0.016380506 0.004381459 0.0042706793
000110 10 d5 ca bd f1 28 5c bd 11 bb 66 bc 79 8a b2 bd
       -0.0990392 -0.053749982 -0.014082686 -0.08717818
000120 86 0a 12 bc 32 93 9b 3d a8 16 bb bc 2c 20 03 bb
       -0.008913642 0.07596435 -0.022837952 -0.002000819
000130 1f 0d 3f 3d 5a 1a c8 3d 0a e4 b9 bd ea 7a bb 3d
       0.046643373 0.09770651 -0.09076698 0.09154303
000140 c2 58 56 3c de f1 d0 3c e3 e9 9a bc b2 1b df bc
       0.013082685 0.025505956 -0.018910354 -0.027234886
000150 89 9b a8 3d 52 c6 7e 3d 69 85 43 3d 73 18 34 3d
       0.08232791 0.06220085 0.04773465 0.04396863
000160 9e 33 9b 3d e1 8a c6 3d ba 9d 3b 3d d3 0c c2 bc
       0.075782046 0.09694458 0.045804717 -0.023687756
000170 6c 53 a3 3d ba 04 6b bc e5 4a 53 bd 45 e2 d0 3d
       0.07974896 -0.014344389 -0.051585097 0.101994075
000180 1b 11 d2 bc 52 70 97 3d c7 c0 70 3d ed 17 84 bd
       -0.025642922 0.0739447 0.058777597 -0.06449876
000190 12 8a 50 3d 4f 52 90 3c 6d b0 9a 3d 45 0e 11 3d
       0.050912924 0.017617373 0.07553182 0.035414
0001a0 d6 f4 c9 3b ee 0b 9b 3c ce d7 87 3d a6 c3 38 3c
       0.00616322 0.018926587 0.06632958 0.011277115
0001b0 1e 76 9e 3c 55 17 f7 3b 70 cf 34 bc 1d 3d ee bc
       0.019343432 0.007540623 -0.011035785 -0.029081875
0001c0 f8 8a d0 3d 9c 17 8f 3c 0b fe 4e bc 1c 17 b9 bd
       0.10182756 0.017467313 -0.012633811 -0.09037611
0001d0 eb 66 a6 bd 62 ed 86 3d 54 7f 62 3d 0a fd 1c bd
       -0.08125099 0.06588246 0.05529721 -0.038327254
0001e0 72 b9 58 bd ce 30 aa 3d 10 20 a4 bd 16 81 34 3d
       -0.05291123 0.0831009 -0.08013928 0.04406842
0001f0 0c 25 85 bd 71 17 4a bc 10 17 b6 3c 5e 56 76 3c
       -0.06501207 -0.01233469 0.022227794 0.01503524
000200 a3 07 1f bd 9e dc 03 3d 86 de a0 3d 0e c5 9a 3c
       -0.038825642 0.03219282 0.07854943 0.018892791
000210 0a 4f e3 3c cd f3 2e 3d 59 b2 11 bd e0 ac b9 bd
       0.02774765 0.042712975 -0.035570476 -0.090661764
000220 30 7c 6e bc fa 6f 0f 3b 70 96 6a bd 62 26 2b bc
       -0.014555976 0.0021886812 -0.057272375 -0.010446163
000230 59 90 60 3d 4f f0 d9 3c d6 65 90 bd b7 c8 91 3d
       0.05482516 0.026603846 -0.07050674 0.071183614
000240 34 1b bb 3d 20 d1 be 3b 78 11 a1 3d cb 2c 80 bd
       0.09136048 0.0058232695 0.0786466 -0.062585436
000250 7c 52 00 bd 77 83 a2 bd 1d 5c 3e bb 76 57 c9 3c
       -0.031328663 -0.07935231 -0.0029046603 0.024577837
000260 f2 df 96 bd 8d 2d b9 3d fc 53 ae bd 5e f9 1a 3d
       -0.07366933 0.09041891 -0.085121125 0.03783547
000270 f0 a8 8f 3c 83 9e bd 3d 65 a0 df 3c c7 2a 8e 3d
       0.01753661 0.09258749 0.027298162 0.06941753
000280 1e 20 9f bd 44 35 9a 3d dd 4c 50 bc fb 6d 13 bd
       -0.07769798 0.07529691 -0.012713638 -0.035993557
000290 0d 1f 90 3c d8 3a dd 3c 96 66 02 bd 1d 8a 94 3d
       0.017592931 0.027005598 -0.031836115 0.072529055
0002a0 fa f7 c5 3d f9 83 b5 3d ac 3a c1 3d 03 51 28 3d
       0.096664384 0.088630624 0.09435019 0.041092884
0002b0 64 6c 9f 3c ba 7c d8 3d 8d 4d 5d bd 65 73 74 3d
       0.019460864 0.10570665 -0.054029036 0.05968036
0002c0 b6 16 58 bd e7 16 53 3d f8 16 9d 3d aa a1 89 3d
       -0.052756034 0.051535513 0.076703966 0.06720288
0002d0 a1 50 c4 3d 4e 38 c6 3c 32 ff 6c 3d 2b e8 5c 3b
       0.09585691 0.02419677 0.05786056 0.0033707719
0002e0 8c 93 93 3b 4b c2 e2 3c f4 52 84 bc 58 f0 1d bd
       0.004503673 0.027680537 -0.016152836 -0.038559288
0002f0 cd 25 75 bd e2 3e 94 3b 64 70 4d 3b 75 78 c1 bd
       -0.059850503 0.004524098 0.0031347508 -0.094468035
000300 8a c6 e2 ba 03 c6 5b bb f2 57 90 3d b2 a9 69 bd
       -0.0017301601 -0.0033534772 0.07048024 -0.0570466
000310 42 3c 20 3c 9e 3b b8 bd 86 ef a5 bb 0d a5 91 3d
       0.009779992 -0.08995746 -0.005063954 0.07111559
000320 7b dd bf 3d df 91 c4 bd ba 03 25 3d 4b 3f 37 3c
       0.09368416 -0.09598135 0.040286757 0.011184524
000330 e3 77 40 bd 2d d6 85 3d 7a e5 1f bd 0f 3e 45 3c
       -0.046989333 0.065349914 -0.039037205 0.012038722
000340 dc 07 1b bc f4 da 93 bc da 7b 6d bd 39 c0 b6 3d
       -0.009462323 -0.01804874 -0.057979442 0.08923382
000350 df 9d 18 3d e9 37 47 bd 3e 0e 91 3d 39 ef ab 3c
       0.037259933 -0.048637304 0.070827946 0.020988094
000360 c0 11 c1 3c d8 2f 91 3d 07 32 a6 3d 10 6d 2e 3d
       0.023568034 0.070892036 0.08115011 0.04258448
000370 e4 49 c3 3d 78 c3 80 3d 0e ba 63 3d 72 63 86 3c
       0.09535578 0.06287283 0.055597357 0.016404841
000380 20 f2 69 bd e3 af 83 3c 6c d6 2b 3d f0 11 ae 3c
       -0.057115674 0.01607508 0.041952536 0.021248788
000390 9a 03 ca bd 80 ae bf bd b4 79 76 3d 7f b1 8b bc
       -0.09863968 -0.09359455 0.06017466 -0.01705241
0003a0 b5 1a b8 bc 5b 7f 23 bd a5 61 c1 3c 13 73 ad 3c
       -0.022473672 -0.039916378 0.02360613 0.021173036
0003b0 37 c4 3d 3c ac c9 cb bd e3 c2 df 3c d9 11 de bc
       0.011582426 -0.09950575 0.027314609 -0.02710812
0003c0 8e 48 8b bd b4 40 9b 3d 3b 1a 2a bd 4d 80 04 bd
       -0.06800948 0.075807005 -0.04152892 -0.03234892
0003d0 cd 1f b0 3d 81 22 27 3d 77 9c bd bd 55 53 4e 3d
       0.085998155 0.04080439 -0.09258359 0.05037244
0003e0 0a fb 60 3c ec 19 15 3c 71 24 bf bc 02 0a 02 bd
       0.013731727 0.009100419 -0.023332806 -0.031747825
0003f0 11 40 35 bd 31 6a 72 3d 38 fe 3a bb 94 5b c5 bd
       -0.04425055 0.059183303 -0.0028532874 -0.09636608

bias f4 [40]
000000 63 d1 87 3d 88 ba 2a 3d 09 b3 9b 3d cd 87 cb bd
       0.06631734 0.041681796 0.076025076 -0.09938011
000010 e8 88 98 3d fe c7 11 3d a1 52 d9 3d ac 18 a8 bc
       0.07447988 0.035591118 0.10611463 -0.020519577
000020 cb 27 80 bb b3 91 b9 3d ca 95 3d bd 8f 75 8e bd
       -0.0039109937 0.09060993 -0.046285428 -0.06956016
000030 80 34 ec 3c 21 2e 4d 3d aa 7a 8d 3d 03 34 9f bc
       0.028833628 0.05009282 0.06908162 -0.01943398
000040 34 af 3b bd ea c7 95 bd f6 5f 7b bd 1d 7c cb bd
       -0.045821384 -0.07313521 -0.061370812 -0.09935782
000050 45 10 a0 bd 6f 56 e2 3c b3 89 6c 3d ca f6 03 3d
       -0.07815603 0.027629105 0.057748508 0.03221778
000060 e2 6a 9c 3d e8 4b a1 3d 80 13 a6 3d 27 14 a4 bd
       0.07637574 0.07875806 0.08109188 -0.08011656
000070 59 f4 a8 bd 79 97 17 bd d9 6c d2 3d d6 9f 29 3d
       -0.082497306 -0.03700969 0.10274667 0.041412197
000080 f6 07 6a bd 7d 49 4f bd 93 5e b7 bd 0e 7c b4 3b
       -0.0571365 -0.050607193 -0.089535855 0.0055079525
000090 db cb d9 3b 29 3e 23 3d ed 9a aa bd 80 59 b5 bd
       0.006646616 0.039854202 -0.08330331 -0.088549614

weight f4 [10, 40]
000000 04 fd 09 3e 8e a8 13 3e b2 71 dc 3c 35 7b 02 3e
       0.13475424 0.14419767 0.026909683 0.12742312
000010 87 86 1c be 0a b7 0f bc 32 fc 14 be b9 6b 55 bd
       -0.15285693 -0.008771667 -0.1454933 -0.052104685
000020 1c 78 e0 3d 2f 8b ca 3d e0 e7 f2 3d cc 35 3e 3c
       0.10960409 0.098898284 0.11860633 0.011609506
000030 d8 7d aa bd a3 c1 1f 3e e5 d1 13 be f0 4d d1 bd
       -0.08324784 0.1560121 -0.14435537 -0.102199435
000040 92 d9 eb 3d d7 f9 ec 3d 34 ca 0f be 4b a6 96 3d
       0.115161076 0.11571091 -0.14041978 0.073559366
000050 39 eb 4d bd 8f de f5 3d ec 63 f6 3d e7 4d 01 be
       -0.050273154 0.1200534 0.12030777 -0.12627374
000060 8e 54 b7 bb ac 86 ba bd 34 e7 cc 3d d3 9e 03 be
       -0.0055947965 -0.09107718 0.10005036 -0.12853555
000070 73 f0 32 3d b2 e0 f9 bd 01 e8 ad 3d 00 6f 03 3e
       0.04368634 -0.1220106 0.08491517 0.12835312
000080 49 1b 2c be eb 6b 3a 3d 34 a0 21 bd e4 63 b3 3d
       -0.16807283 0.045513075 -0.039459422 0.08759287
000090 05 4b 03 be 16 77 e2 3d 0c fa c5 3c 3c 03 7d bd
       -0.12821586 0.1105787 0.024167083 -0.061770663
0000a0 b7 90 99 3c d7 17 96 bd b0 cc d0 3d 5c 62 1f 3d
       0.018745763 -0.07328766 0.10195291 0.038912162
0000b0 dd 1b be bd de 02 f6 bc 26 4a 91 3c 67 90 4b 3d
       -0.09282658 -0.030030664 0.017735552 0.04969826
0000c0 ec bd 59 bd e6 85 14 be 59 50 be bc 67 66 34 bd
       -0.05315964 -0.14504203 -0.023231672 -0.04404297
0000d0 10 08 f0 3d f6 ac df bd 3d d7 35 3d ef c1 e3 bd
       0.11720288 -0.109216616 0.04439472 -0.11120974
0000e0 22 64 3a bd c1 38 18 bc d5 90 1e 3c 0e 35 ce 3d
       -0.04550565 -0.009290875 0.009678085 0.10068713
0000f0 d1 a3 fd 3c 65 49 ad 3d 18 49 d4 3c c6 57 1e bd
       0.030961903 0.084612645 0.02591376 -0.038657926
000100 51 0e e9 bd 7d 9e f3 3d 7a 64 25 bc 2c ca 67 bd
       -0.11379684 0.118954636 -0.010094756 -0.05658929
000110 39 9c a2 bd 47 e6 79 bd ad 89 db 3d 0a 66 51 bd
       -0.07939953 -0.061010625 0.10719619 -0.051122703
000120 24 8f fd 3d cd ec a9 3d 25 03 09 3e 4f 09 c5 3d
       0.123808175 0.08297119 0.13380106 0.09620916
000130 63 10 0c 3d d5 32 0a be 15 6e f8 bd 66 95 67 bc
       0.034195315 -0.13495953 -0.121303715 -0.01413474
000140 5b f6 17 be cb 1a ba 3c 0c ba 4e 3c 0a 0a d8 bc
       -0.14840071 0.022717854 0.012617599 -0.026371974
000150 74 23 8b 3d cc de 7a 3c 40 ac e1 bd 1c d7 97 bd
       0.067938715 0.015311908 -0.11019182 -0.07414076
000160 b4 c9 96 bc d9 3b 64 bd 6c e7 8f bd 4e ac 14 3e
       -0.018406726 -0.055721138 -0.07026562 0.14518854
000170 93 cc 8c 3d f2 c6 ee bd 9a 47 ba bd 37 5f e1 bd
       0.06874957 -0.116590396 -0.09095688 -0.11004489
000180 bb 0b 9d bd 3d 82 9b bd 73 5d 23 bd 57 b3 65 bd
       -0.07668253 -0.075932 -0.039884042 -0.056079235
000190 35 48 8a bd e1 d7 a1 3c 26 0f 26 bd d7 33 93 3d
       -0.06752054 0.01975626 -0.04054179 0.07187622
0001a0 e0 83 25 bd 86 46 2a 3c 63 81 eb bd fa 3e a9 bd
       -0.04040897 0.010392791 -0.11499288 -0.08263965
0001b0 ca e4 0e 3e f3 a8 e5 3d f9 bd f6 bd 05 87 ae 3d
       0.13954464 0.11213865 -0.12047953 0.08521847
0001c0 80 35 25 be 88 25 cc bd 49 a1 18 3e fe ee 9c 38
       -0.1613369 -0.09968096 0.14905275 7.4831754e-05
0001d0 16 ef 97 3d 43 53 c0 3d fd 83 4f ba 64 90 68 bc
       0.07418649 0.09390881 -0.0007916091 -0.014194582
0001e0 6a 3c e0 bc f2 fb f4 3b 05 d7 0f be fd ed ae bd
       -0.027372558 0.0074763233 -0.14046867 -0.085414864
0001f0 6d aa 74 3d 38 bd 14 3d 98 90 04 3e 3d b9 b8 3c
       0.059732843 0.036313266 0.12945783 0.022549266
000200 8c c2 ab bd eb 4b e8 3d c0 a0 d1 3a 2e bb ac 3b
       -0.08386716 0.11342605 0.0015993342 0.005271337
000210 6c ec cd 3d 3c 8b 16 be 24 25 e4 bd 4d f8 99 3d
       0.100548595 -0.14701551 -0.111398965 0.07518063
000220 7a 1a d7 3c 52 1e ea bd bc a8 96 3d 1e 87 c4 bd
       0.026257742 -0.114315644 0.07356402 -0.09596084
000230 5d d8 f2 3d 20 50 09 3e 7f c0 d4 3d 3b b6 6a bd
       0.11857674 0.13409472 0.10388278 -0.057302695
000240 ab 49 a3 bd e8 4c 87 3d be ab ee bd 81 39 cc 3c
       -0.079730354 0.066064656 -0.11653851 0.024929764
000250 67 2b e6 bd d1 5b ac bd 4a 28 b2 3d 7b f7 a7 bd
       -0.11238747 -0.0841595 0.08699091 -0.082015
000260 76 f1 60 ba bf 69 f6 3c 65 04 45 3d 52 bd 9e 3d
       -0.00085809024 0.03007972 0.048099894 0.07750954
000270 2d 8f dd 3c 32 cc 05 ba dc a4 49 bc 77 20 97 3d
       0.02704581 -0.0005103975 -0.012307372 0.07379239
000280 0a 6a 08 bd 96 d2 a0 bd 7c 44 20 3d 88 6f 56 bc
       -0.03330425 -0.07852666 0.03912781 -0.013088115
000290 1c 8f 24 bd b1 c4 9e bd 6a 1b b2 bd 72 7c a4 3c
       -0.040175542 -0.0775236 -0.08696635 0.020078871
0002a0 11 d1 da bd ea 0a 65 3d 32 41 57 3d 74 00 08 3e
       -0.106844075 0.05591861 0.05255241 0.13281423
0002b0 ba d2 ff 3d e7 d0 5e bd 55 11 b7 bd 55 a7 20 be
       0.12491365 -0.054398444 -0.08938853 -0.15688832
0002c0 b0 8b 28 bd 00 95 ea bd 6d 22 39 3d 2b 18 0d 3e
       -0.04114884 -0.11454201 0.045198847 0.1377875
0002d0 b0 6b 1e be ee 91 ad 3d 6d 19 a9 bd 45 3c 15 3e
       -0.15470767 0.084750995 -0.08256803 0.14573772
0002e0 42 2c 15 be 69 59 15 3e e1 c6 ff bd 86 4f 21 be
       -0.14567664 0.14584889 -0.12489105 -0.15752992
0002f0 b3 bf 1e bd a8 7d 14 3e 4c 86 0b 3d 0e 23 83 bb
       -0.038757037 0.14501059 0.034063622 -0.0040019816
000300 3e 7d ec 3d 1d b5 b8 3d a5 c0 86 3d fe 69 c0 3d
       0.115473256 0.090189196 0.06579713 0.093952164
000310 54 55 fe bd 2a 11 8a bd 6b f7 34 bd 24 45 ab bc
       -0.12418619 -0.06741555 -0.04418127 -0.020906992
000320 01 94 04 be 2c 40 46 bd b8 e5 6b 3d 11 1e 08 be
       -0.12947084 -0.048401043 0.057592124 -0.1329272
000330 29 9d c8 bd 8f f3 24 be 8b 27 84 bd 47 7e 24 be
       -0.09795601 -0.16108535 -0.06452855 -0.16063796
000340 8d 14 76 3d fb b7 4f 3d d3 92 5a bd 17 07 58 bd
       0.060078193 0.050712567 -0.05336268 -0.052741136
000350 a7 ca 11 3d 9e 3e f1 bc 24 72 10 bd 8d 03 1b 3e
       0.035593655 -0.029448804 -0.035265103 0.15138073
000360 76 4b 97 bd f1 bb a7 bc d3 5e a3 3d 3a 68 a7 bd
       -0.0738744 -0.02047536 0.07977071 -0.081741765
000370 a7 91 73 bd da 62 23 bc c6 23 22 be f0 dc ce 3d
       -0.059465077 -0.0099722985 -0.15833959 0.10100734
000380 67 1f 1e 3d 75 fb 0a 3e 1f de c3 3d fa 05 07 be
       0.038604166 0.13572486 0.095638506 -0.13185874
000390 6e bd ee 3d 6b cb 1a be 99 50 12 3e 62 76 a2 3d
       0.116572246 -0.1511666 0.14288558 0.07932736
0003a0 73 cb ed 3c f3 1b 04 be 18 02 fa 3d 43 d8 2f 3c
       0.029027676 -0.12901287 0.122074306 0.010732713
0003b0 fb 7f 07 be 3a ca 11 be 7f c7 d9 bd 62 ff 35 bd
       -0.13232414 -0.142373 -0.10633754 -0.044433005
0003c0 49 cd 0b be bc 15 a1 bd 5b 22 0b be bd dd f5 bd
       -0.13652529 -0.07865474 -0.13587324 -0.12005184
0003d0 0f d4 d9 3d 8d c5 8b bd 14 7f 72 3d 46 bd ac bc
       0.1063615 -0.06824789 0.059203222 -0.021086346
0003e0 67 69 73 bd 45 93 ed bb 24 3c 13 be 67 de 72 3d
       -0.05942669 -0.007250222 -0.1437841 0.05929413
0003f0 b5 42 94 bd d9 c2 d3 3d f7 ce 98 bd 37 05 ea 3d
       -0.07239286 0.103398986 -0.074613504 0.11426776

bias f4 [10]
000000 15 09 ba bd 5f 8d 1e 3e 16 01 25 be 73 f6 bb bd
       -0.090837635 0.15483616 -0.16113696 -0.09177866
000010 fa 33 1f bd c9 55 be bd 70 41 93 3d 9c 11 01 bd
       -0.038867928 -0.09293706 0.071902156 -0.031510934
000020 b7 23 26 bd c0 c5 86 bd
       -0.040561404 -0.065806866

weight f4 [2, 10]
000000 ed 87 9a be 03 30 58 3e ab b8 51 3e 28 92 9e 3e
       -0.30181828 0.21112065 0.20480601 0.30970883
000010 ee c0 46 3e 70 78 2c 3e a0 2e c9 bd d0 6e cb bc
       0.19409534 0.16842818 -0.09823346 -0.024833113
000020 ea 88 b4 bd 26 15 7c be 17 c4 4f be 39 39 0e 3e
       -0.08815177 -0.24617442 -0.20289646 0.13889016
000030 76 56 b5 bc bd 11 7d 3d ad f3 0d be df 32 04 3e
       -0.022135954 0.061784495 -0.13862486 0.12910031
000040 7b 76 89 be 82 d6 2d 3d 29 74 5c be b7 5f 08 3b
       -0.26848206 0.0424409 -0.21528687 0.0020809004

bias f4 [2]
000000 c8 8c 94 3e 3e f3 a6 bc
       0.29013658 -0.020379659
