models/model (20, 10, 3) front=True epoch=20 batch_size=71289 lr=0.001.pt (torch, 44494 bytes, 8 tensors)

weight f4 [20, 500]
0	0x3c4df2d2	0.0125701
1	0xbc986cf3	-0.018606639
2	0xbc1b67ca	-0.009485194
3	0x3cb84d7d	0.022497887
4	0xbd0294f4	-0.031880334
5	0xbc81930f	-0.015817193
6	0xbc404b64	-0.0117367245
7	0xbcab520b	-0.020913145
8	0xbb1a017a	-0.0023499415
9	0x3ce459b4	0.027874805
10	0xbce4d7a9	-0.027934866
11	0xbc8b73ed	-0.017023051
12	0x3d141712	0.036154814
13	0xbd1987dd	-0.037483085
14	0xbd174950	-0.03693515
15	0xbbab5aff	-0.0052293534
16	0xbd05eac7	-0.032694604
17	0xbd5551cd	-0.052079964
18	0x3b44177f	0.0029921231
19	0xbce285ac	-0.02765163
20	0xbbb9ecc7	-0.005673978
21	0x3cb25b03	0.021771913
22	0xbd3c1d79	-0.045926545
23	0x3c2d7448	0.010586806
24	0xbc2764c4	-0.0102168955
25	0x3ceff50b	0.02929165
26	0xbd1a3362	-0.03764666
27	0x3d1aa816	0.037757955
28	0xbcef8972	-0.029240344
29	0xbc1a63c0	-0.009423196
30	0xbd1b5cd3	-0.03793032
31	0xbc0da854	-0.00864609
32	0xbc360396	-0.011109253
33	0x3c0dd622	0.00865701
34	0xbb005f09	-0.0019587895
35	0xbccaa794	-0.02473811
36	0x3c5cc6c4	0.013475124
37	0xbc9815ca	-0.018565077
38	0x3c7921ee	0.015205843
39	0xbd2e1547	-0.04250076
40	0xbc9c143f	-0.019052623
41	0xbd4be9a0	-0.04978335
42	0xbd4ed0f1	-0.05049223
43	0xbc3821a4	-0.011238489
44	0x3d0fdc42	0.035122164
45	0xbd3de698	-0.04636249
46	0x3ce05773	0.027385449
47	0x3b940010	0.004516609
48	0xbcc32c3f	-0.02382481
49	0x3cd4fb7d	0.025998825
50	0xba7721ed	-0.00094273576
51	0x3b14298d	0.0022607774
52	0xbcb52cff	-0.022116182
53	0xbc92b0f3	-0.017906642
54	0x3cf915a0	0.03040582
55	0x3c514584	0.0127729215
56	0x3c96d0e5	0.018410156
57	0xbc9e6241	-0.01933396
58	0xbc35f7c6	-0.011106437
59	0xba1463fc	-0.0005660651
60	0xbcb21d55	-0.021742502
61	0x3ba081af	0.004898272
62	0xbc3c99e0	-0.011511296
63	0xbcce9e3c	-0.025221936
64	0xbc116491	-0.008874075
65	0xbc886fb7	-0.016654832
66	0xbcf89f40	-0.030349374
67	0x3c6e5cd1	0.014548496
68	0xbc9086f3	-0.017642474
69	0xbd060057	-0.032715168
70	0xbcc0b7f8	-0.023525223
71	0x3bc9f22d	0.006162903
72	0xbc2c37b0	-0.010511324
73	0xbb935c47	-0.0044970843
74	0x3cc20aad	0.023686731
75	0xbc54c6fb	-0.012986894
76	0xbc946fb2	-0.018119667
77	0xbce31ef9	-0.02772473
78	0xbbf6fac4	-0.007537218
79	0xbc45f757	-0.012082896
80	0x3c19e3e9	0.009392717
81	0x3d1cea60	0.038309455
82	0x3bee4c7e	0.007272302
83	0xbca6c034	-0.020355321
84	0x3cf6c142	0.03012145
85	0x3d1682a5	0.036745686
86	0x3d03930d	0.03212266
87	0xbca46b18	-0.020070598
88	0xbd16dc5a	-0.036831237
89	0x3cca5e52	0.024703179
90	0x3d1335cc	0.035939977
91	0x3cfb6e6e	0.030692305
92	0x3cc7f01e	0.024406489
93	0x3c4feb91	0.012690441
94	0x3c7b24eb	0.015328626
95	0x3c002414	0.007821102
96	0xbbeb8301	-0.0071872477
97	0x3a02de5f	0.00049922423
98	0x3d0ed595	0.034871656
99	0xbc3b67b2	-0.011438297
100	0x3d023f65	0.03179874
101	0x3ac18fea	0.0014767621
102	0x3c9dd9a0	0.01926881
103	0x3a959d1d	0.0011414621
104	0xbc83feaf	-0.016112654
105	0xbd40b857	-0.0470508
106	0x3cca37f8	0.024684891
107	0xbcf3507e	-0.029701468
108	0xba82c274	-0.0009976164
109	0x3c3ce5d1	0.011529402
110	0x3c839271	0.01606104
111	0xbcf24c6e	-0.02957746
112	0x3d21d606	0.03951075
113	0x3d27b6e0	0.040945888
114	0x3cc23599	0.023707198
115	0x3c056dd5	0.008143862
116	0x3c881969	0.016613679
117	0xbca2ad54	-0.01985804
118	0xbd1fe652	-0.03903801
119	0xbcbbc63b	-0.022921672
120	0x3cf206bf	0.029544232
121	0xbd221cce	-0.03957825
122	0xbd2de676	-0.042456113
123	0xbc83643a	-0.016039003
124	0x3cc1767b	0.023616066
125	0x3ccd05b5	0.025027135
126	0x3cc663c6	0.024217498
127	0xbb6a190d	-0.0035720498
128	0x3ab0df9b	0.0013494374
129	0xbcd0aace	-0.025472071
130	0x3d15ba5a	0.03655467
131	0x3c413caf	0.011794253
132	0xbd28222e	-0.04104822
133	0x3cb20ecf	0.021735577
134	0x3c89d400	0.016824722
135	0xbc7e3978	-0.015516631
136	0xbc53570e	-0.012899173
137	0xbbefdb82	-0.0073198685
138	0xbc24bb54	-0.010054428
139	0x3b85424b	0.0040667406
140	0xbc74f17b	-0.014950152
141	0xbccc95af	-0.024973718
142	0xbca2c2c2	-0.019868258
143	0x3ba973e2	0.005171285
144	0x3d13d787	0.036094215
145	0x3d144218	0.036195844
146	0xbcb88ea8	-0.022528961
147	0xbca4ec91	-0.020132335
148	0x3d10835d	0.035281528
149	0xbd45fac1	-0.04833484
150	0x3b5e2b90	0.0033900477
151	0xbce194fa	-0.027536858
152	0xbc8b9b74	-0.0170419
153	0x3c7fa3d9	0.015603029
154	0xbc823fbb	-0.01589953
155	0xbbaab657	-0.005209725
156	0x3c1f57b2	0.009725498
157	0xbd2fedf6	-0.042951547
158	0x3c90ff4f	0.017699866
159	0x3c2a4356	0.010392031
160	0xbd0c91d7	-0.03431877
161	0xbc861479	-0.016367184
162	0xbd30d028	-0.043167263
163	0x3d2078b7	0.039177623
164	0x3ced0f9d	0.028938109
165	0x3d0281bb	0.031862002
166	0xbbba678e	-0.005688614
167	0x3d0be963	0.03415812
168	0x3c5efd57	0.013610206
169	0xbd09b089	-0.033615623
170	0x3cf99692	0.030467305
171	0xbd03f7e1	-0.032218818
172	0xbcac8446	-0.021059167
173	0x3b45e60d	0.0030196935
174	0xbba759f2	-0.005107158
175	0x3cd7c65d	0.026339704
176	0x3ca4d9ef	0.02012345
177	0x3d28d93c	0.041222796
178	0x3d2d0fbb	0.04225133
179	0xbd090fc0	-0.033462286
180	0xbd169d1d	-0.03677093
181	0x3cee3b3e	0.029080983
182	0xbd3ad645	-0.0456145
183	0xbc0b8daf	-0.008517667
184	0xbd2c3818	-0.042045683
185	0xbc82bba1	-0.015958609
186	0x3cd11554	0.025522865
187	0x3cf43688	0.029811159
188	0xbd0f1891	-0.034935538
189	0xbd2b2ce7	-0.04179087
190	0x3c287145	0.010280912
191	0xbd28406c	-0.041077062
192	0xbc875198	-0.0165184
193	0xbcedf0f9	-0.029045569
194	0x3c20e53b	0.009820278
195	0xbd2e4b57	-0.04255232
196	0xbcdb8545	-0.026796946
197	0xbcdfed4e	-0.027334835
198	0x3ccac95e	0.024754222
199	0x3c9bbb42	0.01901019
200	0xbc644557	-0.0139325475
201	0xbcdbaf67	-0.026817037
202	0xbcb7fef7	-0.022460444
203	0x3d13e441	0.03610635
204	0x3b8cfb78	0.0043024383
205	0xbc9695a3	-0.0183819
206	0x3c8f5f42	0.017501477
207	0x3c023847	0.007947988
208	0xbc38d681	-0.0112816105
209	0x3c97a553	0.01851145
210	0x3ca65bac	0.020307384
211	0xbccc7721	-0.024959149
212	0xbcc1f919	-0.02367835
213	0x3d2fe7b7	0.04294559
214	0xbd089202	-0.03334237
215	0xbcad9ee5	-0.02119393
216	0x3cb19d60	0.021681488
217	0xbd2a6d2e	-0.041608028
218	0xbcbfe1e9	-0.023423152
219	0xbcc9c183	-0.024628406
220	0x3c9840ce	0.018585589
221	0xbc5e9e91	-0.01358761
222	0x3d1c89cc	0.03821735
223	0xbada8f3b	-0.0016674766
224	0xbc720306	-0.014771229
225	0xbc300f3d	-0.010745821
226	0x3c4287fb	0.011873241
227	0xbc46422e	-0.012100739
228	0xbd0d7c30	-0.034542263
229	0x3d0dc641	0.034612898
230	0x3d19b21b	0.03752337
231	0xbcda8339	-0.0266739
232	0x3cc84899	0.02444868
233	0xbcb4ce27	-0.022070957
234	0xbce3dece	-0.027816202
235	0x3d13316a	0.035935797
236	0xbd3dfd60	-0.046384215
237	0x3c77ba4d	0.015120101
238	0x3c3be67f	0.011468529
239	0xbcd0b94c	-0.025478981
240	0x3c65b313	0.014019745
241	0x3d0c2869	0.034218226
242	0xbd1f2340	-0.038851976
243	0x3c6bbe28	0.0143885985
244	0x3cd69d7f	0.026198147
245	0x3b48dcf5	0.0030649279
246	0xbade21fa	-0.0016947382
247	0x3d135126	0.03596606
248	0xbd14f87d	-0.03636979
249	0xbb4eaebc	-0.0031537255
250	0x3d02f7e9	0.031974707
251	0x3c803b8f	0.0156534
252	0x3d18f84f	0.03734618
253	0xbc40360e	-0.011731638
254	0xbd04648a	-0.032322444
255	0xbd309c94	-0.043118075

bias f4 [20]
0	0xbc97c283	-0.018525368
1	0xbd675b47	-0.056483533
2	0x3be0296e	0.0068408763
3	0xbd2b5846	-0.04183223
4	0xbc89832d	-0.016786182
5	0xbc2c4ab8	-0.010515861
6	0x3ac8b8a6	0.0015313819
7	0xbd14b798	-0.0363079
8	0x3d2a8d7b	0.041638833
9	0x3cf99ca4	0.0304702
10	0xbc63dde4	-0.013907883
11	0xbca6cfc9	-0.020362752
12	0xbc053b67	-0.008131838
13	0x3d3f2297	0.046663847
14	0x3c384395	0.011246582
15	0xbd032f3e	-0.032027476
16	0xbc394847	-0.011308736
17	0x3c97886c	0.018497668
18	0x3caa9c79	0.020826565
19	0x3ab63d9d	0.001390386

weight f4 [10, 20]
0	0x3d0f238a	0.034946002
1	0xbe4a7850	-0.19772458
2	0xbd30efe0	-0.043197513
3	0x3e2ab8f4	0.16672117
4	0xbd77058e	-0.06030803
5	0x3dabd3c4	0.083900005
6	0xbe304264	-0.17212826
7	0xbe3517a9	-0.17684807
8	0xbd08c5c9	-0.033391748
9	0xbc95111b	-0.018196633
10	0xbe67b93c	-0.22629255
11	0x3b41480a	0.0029492402
12	0x3ca29d31	0.019850345
13	0x3e373baa	0.17893854
14	0xbd5dcf8c	-0.05415301
15	0x3e206191	0.15662219
16	0xbd732db3	-0.059369754
17	0xbd23e64a	-0.040014543
18	0x3e03216f	0.12805723
19	0xbd80b8c3	-0.062852405
20	0x3afb4ae6	0.0019172102
21	0x3dff91be	0.1247897
22	0xbcf2ce91	-0.029639514
23	0xbe26c4ec	-0.16286057
24	0x3e4d4562	0.20045999
25	0x3df920f8	0.121644914
26	0x3d697aa6	0.057001732
27	0x3db0ec47	0.08638816
28	0xbc298b3e	-0.010348139
29	0xbdb5efed	-0.08883653
30	0xbe4742b8	-0.19459045
31	0xbe1fa752	-0.15591171
32	0xbb84926c	-0.004045775
33	0xbb03d0bb	-0.0020113427
34	0xbe37c6d4	-0.1794694
35	0xbe338cb1	-0.17534138
36	0x3db18467	0.08667832
37	0x3e3bd9ba	0.18344775
38	0x3e598553	0.21242265
39	0x3e4ef6b9	0.20211305
40	0xbe12dcb2	-0.14342001
41	0x3e5804eb	0.21095626
42	0x3dd5d7cb	0.1044155
43	0x3dd7ee55	0.10543505
44	0x3de90085	0.11377052
45	0xbd952502	-0.07282449
46	0xbbfbef6a	-0.0076884525
47	0xbd8277b4	-0.06370488
48	0xbda36b18	-0.07979411
49	0xbe32fdea	-0.17479673
50	0x3e221826	0.15829524
51	0xbe305d98	-0.17223203
52	0x3e332614	0.17494994
53	0x3d3755af	0.04475945
54	0x3e38a702	0.18032458
55	0xbdbda0ee	-0.092592105
56	0x3e28ccf1	0.16484429
57	0xbe2aef1f	-0.1669278
58	0x3e060d16	0.1309093
59	0x3db6c125	0.08923558
60	0x3b0e385d	0.0021701076
61	0x3c7171f3	0.01473664
62	0xbe5fea7a	-0.2186679
63	0xbd38beca	-0.045103826
64	0x3cae697b	0.021290531
65	0x3e11e34d	0.14246865
66	0x3dcd8bd1	0.100364335
67	0x3e415975	0.18881781
68	0xbe3e02e9	-0.18555798
69	0x3dca8e10	0.098903775
70	0xbc4e23f5	-0.012581815
71	0xbe42df8c	-0.19030589
72	0x3bc90e6d	0.006135753
73	0xbe0421c8	-0.12903512
74	0x3e2241ef	0.15845464
75	0xbdebb4e4	-0.115091115
76	0x3e2efddf	0.17089032
77	0xbe2167a0	-0.15762186
78	0xbd9c5328	-0.07633048
79	0xbc7411e3	-0.014896843
80	0x3e1df182	0.15424159
81	0x392c7b8b	0.00016449222
82	0x3d925f83	0.07147124
83	0xbe75cf88	-0.24004948
84	0x3e3f5ecb	0.18688504
85	0xbdd732e7	-0.10507756
86	0x3e2d687c	0.16934389
87	0x3d4fde09	0.05074886
88	0x3de2f6af	0.110822074
89	0xbe0d9e99	-0.13830031
90	0xbe6635ea	-0.22481504
91	0x3e5848ba	0.21121493
92	0x3d58340e	0.05278402
93	0xbe17558c	-0.14778727
94	0xbc82b24a	-0.015954155
95	0xbbbdf158	-0.0057965927
96	0xbe70f5d7	-0.2353128
97	0xbe46c3d6	-0.19410643
98	0x3e17b1c5	0.14813907
99	0xbd066c27	-0.032817986
100	0xbcf6d039	-0.030128585
101	0x3cfbf386	0.03075577
102	0xbdcf8b98	-0.10134047
103	0xbdf516eb	-0.11967262
104	0xbdb1912b	-0.08670267
105	0x3e3bf378	0.18354595
106	0xbd38391d	-0.044976342
107	0x3cdba69f	0.02681285
108	0xbdc39973	-0.095507525
109	0xbdc308f6	-0.095231935
110	0xbc99b412	-0.018762622
111	0xbd9b4ea0	-0.07583356
112	0xbe4bd72b	-0.19906299
113	0x3e159f96	0.14611658
114	0x3e67fbc3	0.22654633
115	0xbe341ff4	-0.17590314
116	0x3e0c73e6	0.13716087
117	0x3db7ea94	0.08980289
118	0xbe40de46	-0.1883479
119	0xbe4bc253	-0.19898348
120	0x3d294b78	0.04133174
121	0x3dca1d13	0.09868827
122	0x3e55a2a9	0.20862831
123	0xbe25e6f0	-0.16201377
124	0xbe0de416	-0.13856539
125	0xbe24088b	-0.16018884
126	0xbe6a62db	-0.22889273
127	0xbe2e79a0	-0.17038584
128	0x3d6e0e0f	0.058118876
129	0x3e0b4d70	0.13603759
130	0xbd8d852d	-0.06910167
131	0x3e4b75a9	0.19869103
132	0x3c56805d	0.013092128
133	0x3ba4e493	0.005032131
134	0x3deaf2ab	0.114720665
135	0x3e065850	0.13119626
136	0x3d0e464a	0.034735
137	0xbdb0a2ce	-0.086248025
138	0x3e28cf51	0.16485335
139	0x3e572846	0.21011457
140	0xbc8a839c	-0.01690846
141	0xbe3952de	-0.18098018
142	0x3c37bf58	0.0112150535
143	0xbdca48fa	-0.098772004
144	0xbde9a73e	-0.11408852
145	0xbe2a5bba	-0.16636553
146	0xbd899515	-0.06717888
147	0xbc247e9a	-0.01003995
148	0x3da2ff02	0.07958795
149	0x3e1cf41e	0.15327498
150	0xbe19206d	-0.14953776
151	0xbd8fa3a5	-0.070136346
152	0x3d83a812	0.06428541
153	0xbe102a3e	-0.14078614
154	0x3e3a5b7c	0.18198961
155	0x3ca2e04b	0.019882342
156	0xbe1e2f7f	-0.15447806
157	0xbe235f53	-0.15954332
158	0xba05be94	-0.0005101946
159	0x3e0d022b	0.13770358
160	0x3e68a5d6	0.22719511
161	0x3deda949	0.11604554
162	0x3db00eca	0.08596571
163	0xbe3612e6	-0.17780647
164	0x3c125d6d	0.008933407
165	0x3e61bed9	0.22045459
166	0xbd6d15d6	-0.057882152
167	0x3d24a99a	0.040200807
168	0x3d72df22	0.059294827
169	0x3e30cfd0	0.17266774
170	0xbd2c367b	-0.042044144
171	0xbdbc6420	-0.09198785
172	0xbd60d051	-0.054886166
173	0x3d7ab343	0.061206114
174	0x3da25ef4	0.07928267
175	0xbe261151	-0.16217543
176	0x3e5db011	0.21649195
177	0x3daf523d	0.085606076
178	0xbe10b637	-0.1413201
179	0xbceb27bd	-0.028705472
180	0x3e2a01b1	0.16602208
181	0xbe36c828	-0.17849791
182	0xbd75f6de	-0.060049884
183	0x3de21804	0.11039737
184	0x3e5fe478	0.21864498
185	0x3d7a4e53	0.061109852
186	0x3e5c734a	0.21528354
187	0x3dd7cf65	0.10537604
188	0x3e6a29af	0.22867464
189	0xbda4d16a	-0.08047755
190	0xbdc20f50	-0.09475577
191	0xbe35fd4b	-0.17772405
192	0xbda96d07	-0.082727484
193	0xbe106124	-0.14099556
194	0xbe20def1	-0.15710045
195	0xbdaf0be2	-0.08547188
196	0x3bf1a6bf	0.007374614
197	0xbe3c9c77	-0.18419062
198	0x3e483e3c	0.1955499
199	0xbe24d364	-0.16096264

bias f4 [10]
0	0x3e472a69	0.19449772
1	0xbe0bf845	-0.13668926
2	0x3e259254	0.16169101
3	0x3dea7557	0.11448162
4	0x3df1fefb	0.11816212
5	0x3e59f01c	0.21283
6	0xbdb63a20	-0.08897805
7	0x3db4c912	0.088274136
8	0xbbb61fde	-0.005557998
9	0x3cd48906	0.025944244

weight f4 [3, 10]
0	0x3d0220a3	0.031769406
1	0xbe0e6999	-0.1390747
2	0xbd780d4f	-0.060559567
3	0xbdf4baec	-0.11949715
4	0x3e5c1381	0.21491815
5	0xbdb82db8	-0.08993095
6	0x3d29ad09	0.041424785
7	0x3e9eaef4	0.30992854
8	0x3e7fabd1	0.24967887
9	0xbe8147f2	-0.25250202
10	0x3d567aae	0.05236309
11	0x3bd74314	0.0065692756
12	0xbd97e119	-0.07415981
13	0x3df7b35b	0.12094756
14	0x3dc7e820	0.09761071
15	0xbe806063	-0.25073537
16	0x3e8c13d9	0.27358893
17	0x3d58e582	0.05295325
18	0xbe1aaad9	-0.15104236
19	0xbd8390ed	-0.06424127
20	0xbc2a18c6	-0.010381883
21	0xbddb378e	-0.107039556
22	0xbe963cf3	-0.29343376
23	0x3d2efe25	0.04272284
24	0xbe29986c	-0.1656205
25	0xbe7b8bc5	-0.24565037
26	0x3c9423ae	0.01808342
27	0xbdfeb9c5	-0.124377765
28	0x3e846584	0.258587
29	0x3e84b160	0.25916576

bias f4 [3]
0	0x3e37d205	0.1795121
1	0x3d375b99	0.04476509
2	0xbe0cbdd8	-0.13744295

weight f4 [2, 3]
0	0xbeacc6d2	-0.33745438
1	0xbebdad18	-0.37046123
2	0x3f0b0924	0.5431082
3	0x3e8393c9	0.2569869
4	0xbe6abbfe	-0.22923276
5	0xbec8bfe6	-0.39208907

bias f4 [2]
0	0xbea5393c	-0.3227023
1	0xbe7035fd	-0.23458095
