models/model (100, 40, 10) front=True epoch=20 batch_size=142578 lr=0.001.pt (torch, 221775 bytes, 8 tensors)

weight f4 [100, 500]
00000000: d012 2bbd 64a5 87bc eed4 223d 5d5c 103d
00000010: cdac 183d f10a 353d 94b4 8d3c 9525 723c
00000020: 90fe 373d 970d 9f3c 0dd1 18bd 5460 eb3c
00000030: c4dd c7bc 7d93 1fb8 fcee 363d c573 17bb
00000040: 9d08 9dbc e1f8 3a3c f962 e6bb 79f6 08bd
00000050: ee45 1f3d 26b3 0abc 5d92 2abd 36da 333d
00000060: 6f88 a83c 54be 0d3d b32e 133d 5b91 703c
00000070: 4ff3 8b3c e391 703c 414f ddbb 5b53 1f3d
00000080: f561 bdbc c222 d2bc 8a70 023d f5df 873c
00000090: 48f5 0e3d 2ba6 1b3d f4ee 213d e7c5 173d
000000a0: 78d4 1cbd 6bbe 25bc 9c98 393d d9d0 a7bc
000000b0: 24f4 c0bc e885 f939 1c50 babb 9dbb 74bc
000000c0: f018 9d3c d088 383d 4144 77bc abde d8bc
000000d0: c449 733c bccd 323d c95b 73bc e465 203c
000000e0: 2e2e d1bc f8a5 d2bc bec9 d0bc 5f11 393c
000000f0: 9dc6 d53c 78bb 95bc cd63 0cbd 3c47 893c
00000100: 8ef2 05bc a3cf 15bc 93d5 67ba e283 04bc
00000110: 2897 91bc 442a e3bc f223 293c 7ac6 e4bc
00000120: 95d9 8abc 830b 97bc 74dd b2bc 3c9e 1f3d
00000130: 8b7a f03c 2923 7c3c 5747 4dbb 4872 8bba
00000140: aaf9 ec3c 5643 57bb b262 7bbc 7671 2dbc
00000150: 1093 953c dd39 37bb 06e2 d93a 473a 8dbb
00000160: 49f4 84bc 7dd2 10bd 0a63 b6bc 51e9 39bb
00000170: 177e 6a3c efcf e33c 221e 22ba ba19 123d
00000180: f7a1 0cbd aa31 e73c afcd 8d3c c919 263c
00000190: f731 993a 03ad f8bc 8c74 19bd 6bff c2bc
000001a0: 9445 f2bc 3abf e1bc 5658 a03a 607c 00bd
000001b0: c04d 1c3d 35be 2ebc 023a 40bc 6832 b839
000001c0: 7ba1 99bc adf4 0f3d e302 c53b ebff d33c
000001d0: c931 10bb f658 233d be12 2a3d 7678 c33b
000001e0: 5166 2f3d 417f 063d 2e97 143d 6a4a ad3c
000001f0: 86b3 26bc 410e 03bd 27f2 debb 7cc9 89b9
00000200: 1633 073d d9dd 373d c804 42bc 7a42 26bd
00000210: 2c97 0b3d 4be5 403c f086 85bc 18e7 a2bc
00000220: 78b8 7b3c 62b8 0b3d f399 b53c 0fb5 193d
00000230: 8a0a 9cbc 0c59 2abd 04bb 0abc 120f 23bb
00000240: 05bf c13c 9564 75bc d943 ab3c d55a e33c
00000250: fed1 fdbc 2362 67bc 8086 d9bc 7d95 ae3c
00000260: fc3f 083d fbb9 b7bc 1542 e83c 44b7 e33b
00000270: d019 abbc badc f8bc 47cf 343d ba80 11bd
00000280: 7596 003d c87e 333d 030c d23c 78ab d13c
00000290: ef65 093c 90aa be3c 1e48 a5bc 0ec6 d93c
000002a0: cad2 fcbb eca8 d4ba 4890 c4bc ab00 073c
000002b0: 5d19 2c3c e755 f23c ea28 17bd 0597 263d
000002c0: 7133 c53c 9487 0cbd 6623 b3bc bd3b 2cbd
000002d0: b549 c13c 50c8 2ebd 39a3 9dbc e76f 15bd
000002e0: 3733 343d 2130 41bc ee09 83bb 8041 ccbc
000002f0: 3f0e 9dbb 0d38 d4bc 7925 983b 1196 fcba
00000300: 2ce5 e13c 3979 3b3c 7fe1 24bd 850a efbc
00000310: 0ff2 323d d132 7bbb e3e9 943a fade 31bd
00000320: a5e1 33bd 612e 363d 6d97 903c 37d0 953c
00000330: 5d21 9b3c 56ac c13c 9941 66bc 09ae a73c
00000340: ee5a 10bd e57a 8f3c 0d29 113d 00c1 183d
00000350: 206f 1d3d 15b8 09bd ddcd fabc e300 99bc
00000360: 8513 23bd 0afe 563c 0498 de3c f3ab 8f3c
00000370: fbb6 febc c5f2 30bd fea7 523c d5e8 d8bb
00000380: 04fb d73b d2bd 563c 6b99 c93b b251 83bc
00000390: 0228 1cbc 8e79 c33c 7134 103d ff08 0bbd
000003a0: 01c1 36bc ff19 963c 44cc 2bbd 61f5 793c
000003b0: b4dc 5a3c 8db3 bebb a23a 4f3c 7c1c 28bc
000003c0: 3372 8cbc a0cb b83a 9952 513c 52d5 053d
000003d0: f95a c1bc df6b 02bb 86d6 ff3b 8fba 633c
000003e0: ac54 c3bc 5669 06bc ded1 58bc 50d9 aabb
000003f0: 70fa 1dbd 8c97 023c 199d 083d 57f1 db3c
-0.041765988 -0.016558357 0.039753847 0.035244334 0.03727417 0.044199888 0.01729802 0.014779468
0.044920504 0.01941566 -0.03730874 0.028732456 -0.024397738 -3.8045913e-05 0.044661507 -0.0023109776
-0.019169146 0.011411876 -0.0070308414 -0.03343818 0.03888505 -0.008465564 -0.04164349 0.043909274
0.02057287 0.03460534 0.035933208 0.014683093 0.017083792 0.01468322 -0.0067538326 0.038897853
-0.023117999 -0.02565134 0.031845607 0.016586283 0.034901887 0.038000267 0.039534524 0.03705397
-0.038288563 -0.0101162 0.045311555 -0.020485329 -0.023553915 0.0004759275 -0.0056858193 -0.014937309
0.01917693 0.04505235 -0.015091957 -0.026473364 0.01484913 0.043653235 -0.014853426 0.009789918
-0.025534716 -0.025713906 -0.025486823 0.0112956455 0.026095683 -0.018277869 -0.034274865 0.0167576
-0.008175505 -0.009143743 -0.0008843776 -0.008088084 -0.017772272 -0.027730115 0.010323511 -0.027926672
-0.016949454 -0.018438106 -0.021834113 0.038969263 0.029355308 0.015389242 -0.003132304 -0.0010638917
0.028927643 -0.0032846532 -0.015343355 -0.010586133 0.018258601 -0.0027958073 0.0016623146 -0.0043099257
-0.016229765 -0.035356987 -0.022264022 -0.0028367827 0.014312289 0.027809111 -0.00061843 0.035669066
-0.03433415 0.028221924 0.017309992 0.010137984 0.0011687864 -0.030355936 -0.037464663 -0.023803433
-0.029574193 -0.027557004 0.0012233357 -0.031368613 0.038160086 -0.010665466 -0.01173258 0.0003513277
-0.018753758 0.03514545 0.006012307 0.025878867 -0.002200233 0.03987976 0.04152178 0.005965288
0.042822186 0.032836203 0.03627699 0.021153647 -0.010174638 -0.031996015 -0.006803769 -0.00026280794
0.033007704 0.044889305 -0.01184196 -0.04059074 0.034079716 0.011773418 -0.016299695 -0.019885585
0.015363805 0.034111388 0.022168135 0.037526187 -0.019047994 -0.041588828 -0.00846744 -0.0024880809
0.023650656 -0.014977594 0.020906376 0.027753273 -0.030983921 -0.014122519 -0.026553392 0.021311516
0.033264145 -0.02242755 0.028351823 0.006949337 -0.020886332 -0.030378688 0.044142988 -0.035523154
0.031393487 0.04382208 0.025640493 0.025594458 0.008386119 0.02327469 -0.02017599 0.026583698
-0.0077155577 -0.0016224659 -0.02399458 0.008239905 0.010504094 0.029581977 -0.036904253 0.040671367
0.02407238 -0.034308985 -0.021867465 -0.04204916 0.023594717 -0.0426715 -0.01924287 -0.03648367
0.043994155 -0.01179126 -0.0039989864 -0.024933577 -0.004792958 -0.025905633 0.004643139 -0.0019270797
0.027575098 0.011442476 -0.040254112 -0.02917982 0.043687876 -0.003832985 0.0011361208 -0.043425538
-0.043916363 0.044477824 0.01765033 0.018287761 0.018936807 0.023641746 -0.014053726 0.020468729
-0.035242967 0.017514655 0.03543954 0.037293434 0.038436055 -0.03362282 -0.030615741 -0.01867718
-0.039813537 0.013122091 0.027172096 0.017538046 -0.031093111 -0.043200273 0.012857435 -0.0066195526
0.0065912027 0.01310678 0.006152322 -0.016030166 -0.009531023 0.023861673 0.035206262 -0.033944126
-0.011154414 0.018322943 -0.04194285 0.015256257 0.013358284 -0.005819744 0.0126482565 -0.010260697
-0.017144298 0.0014098771 0.0127760405 0.03267414 -0.02360295 -0.0019900722 0.0078075556 0.0138994595
-0.023844086 -0.008203825 -0.01323363 -0.005213894 -0.038568914 0.007970702 0.033352945 0.026848478

bias f4 [100]
00000000: 7765 173d adbd 253d ef8e 123d 7d2b faba
00000010: 63e7 243d 4d81 87bb b97c bbbc 6aaf 9ebc
00000020: 5c7e c8bc 394a 953c a7e9 bebc 1208 7fbc
00000030: ceac 8b3c a3ee 153d 8dbd 21bd cace 893c
00000040: 64e0 32bd 512f 07bc e61d 4d3d e6a2 a7bc
00000050: ef7c 4a3c 7847 87bc 5fdb 19bd 52ca 1bbd
00000060: 1886 33bd 9ac5 d6bc 5966 173c 5435 4c3d
00000070: e181 4c3c 12c0 533d 827d 263d 4baf 9fbc
00000080: ad9c c8bb 3fa7 aabc fe5c 46bd 8713 02bd
00000090: bfcb 34bd a071 5a3c 4e83 5c3a 2de2 e73c
000000a0: 3cc3 09bc c891 1e3b 2c46 02bd bf02 9cbc
000000b0: fee3 eebc 6a9f 1b3d 4f3d 45bd 27c6 ca3b
000000c0: c792 42bc e5e6 a93b 8a0f 663b 4118 f13b
000000d0: 2491 953c 7a59 99bc 66d2 01bc 9b8a 333d
000000e0: 0c09 15bd 88c2 94bc 2cf1 453c 8e8a d1bc
000000f0: d812 ee3c 8dd6 003d a13e ea3a 206e 0fbc
00000100: f5fc 233d fbfc b73c 6962 2a3d 40d3 163d
00000110: 4db5 6c3c 069c 9cbc 4694 ebbc 11b7 d63c
00000120: 5a42 2839 1697 193d 1b51 21bc 8a0c dc3b
00000130: 5077 013d bf4f e03c 3db4 283c 74f2 dbbc
00000140: 5b90 cebc 2219 fabb 2f1d 3c3d ae97 2bbd
00000150: c5f9 2dbd cd68 443d fc0b ebbc dad9 8c3b
00000160: aea0 993c 5e58 43bc 85e8 373c d028 48bc
00000170: 1423 013c 5ee1 cebc a5d1 443c f41a a03a
00000180: cce9 debb fbec 00bc e5cd 31bd 2741 1fbd
0.036962 0.040464092 0.035780843 -0.0019086447 0.04025973 -0.004135287 -0.02288662 -0.019370753
-0.024474315 0.018223869 -0.023304773 -0.015565889 0.017050173 0.036604535 -0.03948741 0.016822238
-0.043671027 -0.008251027 0.05007734 -0.020463418 0.012358888 -0.016513571 -0.037562724 -0.038034745
-0.043829054 -0.02621727 0.00924071 0.049855545 0.012482137 0.051696844 0.040647037 -0.019492766
-0.006122193 -0.020831702 -0.048428528 -0.031756904 -0.04413962 0.013332754 0.00084119 0.028306091
-0.008408364 0.002419578 -0.031805202 -0.019044278 -0.02916145 0.037993826 -0.04815417 0.0061881724
-0.011875815 0.0051849955 0.0035104477 0.0073576276 0.018257685 -0.018719424 -0.007923698 0.043833356
-0.03638558 -0.018159166 0.012081426 -0.025578763 0.02906172 0.03145461 0.0017871448 -0.008754283
0.04003616 0.022459498 0.041597757 0.036822557 0.014447522 -0.019117367 -0.028757226 0.02621034
0.00016046446 0.037497602 -0.009845997 0.006715362 0.031607926 0.027381776 0.010296878 -0.02684901
-0.025215318 -0.0076323906 0.04592627 -0.0418927 -0.042474527 0.04795151 -0.028692238 0.004298431
0.018753376 -0.011922924 0.011224871 -0.012216762 0.007881898 -0.025253948 0.012012874 0.0012215064
-0.006802773 -0.007869001 -0.043409247 -0.038880493

weight f4 [40, 100]
00000000: e14b 8dbd 5859 2dbd e9d3 8ebd 6b79 2abd
00000010: ac4e be3d 191c 9fbd 83d6 453d b493 e0bc
00000020: 66dd e4bc 3e80 44bd b148 0fbd c49d b33c
00000030: d50c 5ebd 6a5d 7b3d 038d 91bb 0324 b8bd
00000040: cae4 d73d e7e8 db3c ec15 20bd 910d a43d
00000050: 916b 33bd f941 44bc 5e79 19bc 7a5e 8b3c
00000060: 4b5b 4abd 5e78 debc 6d5a ec3c 159f 143d
00000070: 86b8 713d fd13 cf3b 99cd b63d 958b c73d
00000080: 1ddd 94bb d94f 43bc c1d8 68bd 9a7f 92bd
00000090: 2b5e 833d b7ac 913c b4cf b1bd 55e3 0e3d
000000a0: 7a31 82bd ff96 863d f66c 88bc 017b 73bd
000000b0: d192 84bd a9a9 a63d ba8f f63c 7741 9abd
000000c0: 166c 92bd 3042 83bd b734 d7bd 556d 853d
000000d0: e493 ffbc 4e4d 153d 66af a93d f17c cebd
000000e0: 6e59 b9bd c20f d5bc 1736 57bc 06f0 c7bd
000000f0: 73aa b5ba de60 6a3d 4aa5 7fbc 4975 8bbd
00000100: 0a58 9dbd d41e 84bb b53a 67bc e69f 803b
00000110: 759d b2bd 5c93 72bd d3e9 a4bc 2799 83bd
00000120: bf20 cebc 689a 9a3d 1d30 3dbc 5319 d2b9
00000130: cc04 583d e8d6 c23d 476e babd 11d5 b13d
00000140: c370 853c 1bed d03c bd2b 94bc 2013 efbc
00000150: 9601 bb3d 487d 843d bbb5 1e3d 2db4 e83c
00000160: 3df0 9a3d 672d c93d 4fbc 3b3d 0f20 b9bc
00000170: 8b1d bb3d 124b 1fbc 2d7d 4fbd 5176 ce3d
00000180: 8123 b7bc 662f 743d 1789 6e3d 02f8 84bd
00000190: aa23 4c3d 9fc7 683c 5b4f a03d 81e8 0e3d
000001a0: 0616 b63b e50e 8b3c 2376 873d 41fd 2f3c
000001b0: be01 ab3c 57b1 e83b 91ae 51bc 48dd f0bc
000001c0: fb44 cf3d d4f1 913c 458d 70bc 6649 bbbd
000001d0: c16c a7bd 1f73 853d 8f39 603d 627c 20bd
000001e0: e960 6cbd 2869 a83d 0035 a5bd fe84 2f3d
000001f0: 5ec3 86bd fc48 5dbc 7f7b a13c f44a 583c
00000200: 4563 20bd 4c32 033d 8b9c 9e3d cb20 8e3c
00000210: 16de de3c bb23 2a3d 768d 13bd 4ce9 bbbd
00000220: 2067 6ebc d764 343b 2a1a 6cbd 3573 33bc
00000230: 65b6 5e3d 4c35 cf3c 63bf 90bd a405 8d3d
00000240: 95a2 b93d 3f64 873b 60c2 a03d 7e67 81bd
00000250: 27f6 04bd 8dfe a2bd cdf4 98ba 8d92 c13c
00000260: 6675 98bd a62e b73d 7723 b6bd 1a72 133d
00000270: 5f52 843c 200e be3d 245f d03c fe9b 8c3d
00000280: d28b a1bd eb03 943d 169d 61bc 75c0 1cbd
00000290: 51d4 833c a6c9 d63c 5994 08bd 84ab 933d
000002a0: 6cf2 bf3d 5265 b13d e7eb c03d c66f 2c3d
000002b0: 7636 5f3c 5e4d d73d 105c 5bbd eaf9 6e3d
000002c0: 035f 50bd af0e 4d3d 55eb 9b3d a629 853d
000002d0: 3fcf c13d 4236 c33c 7fe6 693d 7d4e ed3a
000002e0: 1121 c03b 0256 db3c fb12 94bc a711 21bd
000002f0: 0bc0 76bd 3aa6 303b 4b5c 183b 2c0c c0bd
00000300: 680f 403a be09 26bb aca8 903d c89c 6ebd
00000310: 086c f53b 6c5c babd ef5e cabb ab89 903d
00000320: 36ec c23d 9675 b3bd 590a 4e3d 20c9 8f3c
00000330: 1fe7 3bbd 19bb 953d 6a42 ebbc 518c 4f3c
00000340: 20da 0fbc 4661 8dbc bcc8 64bd a2eb bc3d
00000350: 2f63 1a3d a4f4 49bd 9af4 913d 4829 b23c
00000360: ccac ef3c 1267 993d da08 a83d 8049 303d
00000370: acbf bc3d 5166 8d3d d462 613d 1eea 913c
00000380: dbb8 60bd 27cd 883c 1ef1 4d3d 419c d73c
00000390: 39da c6bd 109b b0bd 3c69 7e3d 8c2d 98bc
000003a0: f3bb b6bc 24ce 1ebd 6a4c e03c 1759 b93c
000003b0: c7b0 363c be06 c2bd 8f9c e13c 0a82 ddbc
000003c0: db24 8cbd 20f4 993d 5d0e 29bd 0b84 00bd
000003d0: 5cff c83d 26f0 1c3d b709 bcbd 0413 533d
000003e0: 91e2 983c 76ee 123c 2d71 bdbc e4cb e9bc
000003f0: 683f 38bd 7677 763d ce38 42bc 05a7 c2bd
-0.068992384 -0.042321533 -0.069740124 -0.0416197 0.09292349 -0.07769031 0.048300277 -0.02741418
-0.027937602 -0.047973864 -0.034981433 0.021925814 -0.054211456 0.061368383 -0.0044418587 -0.08991244
0.10541685 0.026844455 -0.039083406 0.080104 -0.043803755 -0.01197862 -0.009367315 0.017012823
-0.04940347 -0.027157005 0.028851712 0.036284525 0.059013866 0.0063195215 0.089259334 0.0974342
-0.0045429603 -0.011920893 -0.056847338 -0.07153244 0.064144455 0.017782552 -0.08682194 0.03488477
-0.06357093 0.06571769 -0.01665352 -0.059443478 -0.064733155 0.08137829 0.030097831 -0.07532018
-0.07149522 -0.06409109 -0.105081014 0.06514994 -0.03119845 0.036450677 0.08285408 -0.100824244
-0.090502605 -0.02600849 -0.013135455 -0.09762578 -0.0013860002 0.057221286 -0.015603373 -0.0680948
-0.07682808 -0.0040319953 -0.014113118 0.0039253114 -0.08721439 -0.059222564 -0.020131027 -0.06425696
-0.025162099 0.07548982 -0.011547116 -0.0004007319 0.05273895 0.09513646 -0.09103065 0.08683217
0.01628912 0.025503686 -0.018087262 -0.029183924 0.09131162 0.06469208 0.03874753 0.028406227
0.07565353 0.09823113 0.045833882 -0.022598295 0.09136494 -0.009722488 -0.050656486 0.10081161
-0.022355797 0.059615515 0.058236208 -0.06492616 0.0498387 0.01420775 0.07827636 0.0348897
0.0055568246 0.016974876 0.0661433 0.010741533 0.020874854 0.0071012187 -0.0127979675 -0.02940239
0.10120579 0.017815508 -0.014682119 -0.09144859 -0.0817504 0.06516098 0.054742392 -0.03918112
-0.05770961 0.08223182 -0.080667496 0.04285144 -0.06580232 -0.01350617 0.019712208 0.013201464
-0.03915717 0.03203039 0.07744702 0.017349621 0.027205508 0.04153798 -0.03602358 -0.09175357
-0.014550954 0.0027525926 -0.05764214 -0.01095276 0.054373164 0.025293969 -0.07067754 0.068858415
0.09064213 0.0041318233 0.07849574 -0.06318568 -0.03246131 -0.07958708 -0.0011669636 0.023629451
-0.07444267 0.08944444 -0.08893483 0.035997488 0.016152559 0.09280038 0.025435992 0.06865691
-0.07887997 0.0722731 -0.013770362 -0.03826948 0.016092451 0.0262192 -0.0333446 0.072104484
0.0937241 0.086619034 0.09419995 0.042098783 0.013623824 0.105128035 -0.053554595 0.058343805
-0.05087186 0.05006283 0.076132454 0.065020844 0.09463357 0.023829583 0.057104584 0.0018105056
0.005863317 0.02677441 -0.018075457 -0.039323475 -0.06024174 0.0026954548 0.002324837 -0.093773216
0.00073265145 -0.0025335397 0.070634216 -0.058254987 0.007489685 -0.09099659 -0.0061758677 0.07057508
0.0951771 -0.08762662 0.050302837 0.017551959 -0.04587471 0.07311077 -0.028718192 0.012667731
-0.008780032 -0.017258298 -0.055855498 0.09224631 0.037692245 -0.049305573 0.07126732 0.0217482
0.0292572 0.07490362 0.08204813 0.043038845 0.09216246 0.06904281 0.05502589 0.017811831
-0.054863792 0.016699387 0.050278775 0.026319625 -0.097095914 -0.08623326 0.062112078 -0.018576406
-0.022306418 -0.03877081 0.027380187 0.02262549 0.011150545 -0.09473942 0.027540473 -0.027039547
-0.06842967 0.07517266 -0.041273464 -0.031375926 0.09814331 0.03831496 -0.091815405 0.051531807
0.018662723 0.008967986 -0.023125255 -0.028539605 -0.044982344 0.06017252 -0.011854364 -0.09504513

bias f4 [40]
00000000: edce 7f3d 245b 253d d061 943d 3b51 c8bd
00000010: 2174 963d 00f2 113d d291 cd3d 091c d8bc
00000020: dfbf c5bb 8712 ba3d 5729 3cbd 0eab 8ebd
00000030: 7edf e43c a133 573d 8b89 843d 5664 9ebc
00000040: 2b0a 39bd 60e3 93bd 23ec 86bd b70b c3bd
00000050: 2781 a2bd f1cf e43c ea95 6d3d 0dbf 013d
00000060: e4cb 9e3d 49ee 9f3d d66a ad3d 04ff adbd
00000070: 7ed4 a3bd 8ac9 12bd f745 d03d ccd4 293d
00000080: 31a8 74bd ef05 4bbd d138 babd 8158 ad3b
00000090: 3bd8 793b b6ec 343d 85de a9bd 9b3f b9bd
0.0624532 0.04037012 0.07245219 -0.097811185 0.073463686 0.03563118 0.10037579 -0.026380556
-0.0060348357 0.09085565 -0.045937862 -0.0696622 0.0279386 0.05253947 0.06471547 -0.019334953
-0.045175713 -0.07221103 -0.06588008 -0.09523719 -0.0793479 0.027931185 0.058004297 0.03167634
0.07753733 0.07809121 0.08467643 -0.08495906 -0.07999514 -0.035836734 0.10169595 0.041462705
-0.059730712 -0.049566206 -0.09092868 0.0052900915 0.0038123268 0.044171058 -0.08294395 -0.09045335

weight f4 [10, 40]
00000000: b2a0 0a3e 75e9 133e e93e dd3c d5b6 033e
00000010: b925 1cbe 7f2a 0dbc 8156 0ebe 7417 5abd
00000020: 0469 e13d 6a64 c33d ffb9 f43d 891f 2b3c
00000030: 530a b5bd c6ff 213e d3ad 15be c9e8 d1bd
00000040: fd0c ee3d 4b71 ef3d 6d7e 12be 1ba5 993d
00000050: be06 52bd eab5 ff3d 6f48 f83d bc6f 02be
00000060: fee3 e53a 5b0c b7bd 9158 ce3d fdb2 f8bd
00000070: cccb 293d 87e2 f2bd 8866 ae3d ba7f 043e
00000080: d94f 1dbe f76f 3b3d bee4 32bd 9ca4 b43d
00000090: c522 03be e6d8 e63d 5678 c23c 4a35 7cbd
000000a0: edf4 76bb 8445 91bd 7582 cf3d f42f 213d
000000b0: df9b c0bd 1587 f4bc 64f3 933c ac24 6d3d
000000c0: 9ea8 92bd 499a 03be 90f4 c1bc 2a07 82bd
000000d0: 151d 0d3e f8cd ebbd 722e b03c f106 e5bd
000000e0: 5386 3dbd d5f2 a4bc 86df 283c 830e d53d
000000f0: df74 cf3c 6573 ae3d d329 bf3c 481a 1cbd
00000100: 38a0 e8bd 77b6 f43d 41c2 b2bc 3084 66bd
00000110: 5ccd a3bd 238a 77bd 5cae dc3d d489 53bd
00000120: 0736 fe3d 5265 aa3d 0082 093e b459 c63d
00000130: fa52 df3c a6a7 09be bd4b fabd 85de 55bc
00000140: 1965 17be 754d be3c 4b64 5d3c fb1d d4bc
00000150: bdc6 893d db4b 813c 4a5a e0bd 832e 97bd
00000160: bc0b 92bc f70b 62bd 21bc 8ebd cd4e 153e
00000170: 120b 8e3d a0eb efbd 0c12 b9bd 0010 e3bd
00000180: 35cb 9bbd b52b 9bbd ac88 21bd 1261 63bd
00000190: 1429 89bd 130d a83c d0f7 23bd 9ac4 943d
000001a0: 368e 24bd 28dd 343c 336b eabd 9913 a8bd
000001b0: 41a0 0f3e 9418 e73d 3bd9 f5bd 65f9 af3d
000001c0: 9f60 24be 4ee9 cabd 6755 193e d0b8 273a
000001d0: e440 993d 528d c13d 9d8e 4fba 950b 5fbc
000001e0: cec2 3dbd 60aa cb3b f36a 10be 2ffd aebd
000001f0: 4b23 6d3d 8d2a 103d 2b14 053e b01f a43c
00000200: a9a1 d4bd 5d6d d53d d86a d9ba a70f c73b
00000210: 222e d23d b139 1cbe 1fb8 06be f599 983d
00000220: 7e6a c73c 6642 eabd 6c8f 943d 365d c7bd
00000230: 9991 da3d cbb1 093e 14d5 d23d 4297 6bbd
00000240: cc99 a5bd 455e 883d 9f3b f7bd 9765 c63c
00000250: 5879 e7bd f23c adbd c7b5 ad3d 0512 abbd
00000260: 420a 64ba 92f7 f63c e058 473d d6ac 9c3d
00000270: 9328 a43c de1c bfba 831c 38bc 506d 963d
00000280: c420 06bd 224c a0bd 089a 233d 84fb 4bbc
00000290: b952 32bd 88cb 9dbd 21d3 b0bd 98cf 9f3c
000002a0: 82a7 d9bd 06c5 653d 43ba 593d 2a9f 083e
000002b0: a583 003e 519f 62bd 70e3 b5bd 0275 1fbe
000002c0: d4d1 26bd b2cf eabd e53e 3b3d c692 0d3e
000002d0: f4f9 1dbe 61fb ae3d b2e1 a7bd afd6 153e
000002e0: b8c5 14be ab10 163e fd43 00be 1cb4 20be
000002f0: f777 26bd 4328 153e 0d02 0c3d 2990 4dbb
00000300: b6fa ed3d f571 ba3d ff20 883d ac35 c13d
00000310: 2229 fdbd 4f3a 89bd 69bb 31bd e637 a4bc
00000320: 9126 03be 426e 41bd 55b8 6f3d db6f 07be
00000330: 6b21 c6bd 6a46 24be e1e5 82bd 71a9 23be
00000340: 8832 7a3d 7104 563d b034 57bd ad97 57bd
00000350: 66a1 153d d63e eabc 70ca 0cbd 58a9 1b3e
00000360: c91d 95bd f20b a1bc c0d4 a43d 13fb b4bd
00000370: b55d 6ebd 0be7 18bc 3f8b 21be b253 d03d
00000380: 7bd2 203d 9aad 0b3e 6a0a c63d e267 06be
00000390: db95 ed3d 3728 1abe dc30 133e 70f4 a33d
000003a0: 40c0 f23c d586 03be 7358 fb3d 34b9 3b3c
000003b0: c37a 04be effe 10be abd2 d9bd ca65 33bd
000003c0: 9038 06be 4b6b 9ebd d477 0abe c21f efbd
000003d0: 7504 db3d 3682 85bd f073 803d 17e3 93bc
000003e0: 39cc 70bd 4c9a dabb 1ea6 12be 5341 793d
000003f0: 2bf7 92bd 9d40 db3d 2214 97bd f44d eb3d
0.13537863 0.14444526 0.027007537 0.12862714 -0.15248765 -0.008616089 -0.13900186 -0.053245023
0.11006358 0.09540637 0.119495384 0.01044453 -0.0883986 0.15820226 -0.1461709 -0.10249478
0.11623571 0.11691531 -0.1430604 0.075021945 -0.05127596 0.12485869 0.121231906 -0.12737936
0.001753926 -0.089379035 0.100754865 -0.12143514 0.04145412 -0.11859613 0.0851565 0.12939349
-0.1536249 0.045761075 -0.043675177 0.08820459 -0.12806232 0.11271839 0.023739021 -0.061574258
-0.0037682608 -0.07093337 0.101323046 0.039352372 -0.0940473 -0.029849568 0.018060394 0.0578963
-0.071610674 -0.12851824 -0.023676187 -0.06349023 0.13780625 -0.11513895 0.021506522 -0.111829646
-0.04627068 -0.020135323 0.010307198 0.104031585 0.025324283 0.085181035 0.023335373 -0.038111
-0.11358684 0.11948865 -0.021821143 -0.056278408 -0.079981536 -0.06043447 0.10775444 -0.051645115
0.12412649 0.083201066 0.13428497 0.09685078 0.027261246 -0.13442859 -0.12221477 -0.013053541
-0.1478466 0.023230294 0.013512681 -0.025893202 0.067273594 0.015783241 -0.10954721 -0.07381918
-0.017827861 -0.05518719 -0.069694765 0.14580841 0.06935705 -0.11714864 -0.09036645 -0.11087036
-0.07607118 -0.07576696 -0.03943698 -0.055512495 -0.06697288 0.020514047 -0.040031254 0.07264061
-0.040174685 0.011039056 -0.11446228 -0.08206863 0.14025976 0.11283985 -0.12004324 0.0859249
-0.16052483 -0.099077806 0.14973985 0.00063980836 0.0748308 0.09450783 -0.00079176744 -0.013613601
-0.04632836 0.0062153786 -0.14103298 -0.08544385 0.057894986 0.03519683 0.12995975 0.020034641
-0.10382397 0.1042125 -0.0016587628 0.006074864 0.102627054 -0.15256383 -0.13156174 0.0745124
0.024342772 -0.11438446 0.07253918 -0.097345755 0.10672302 0.13446729 0.10294548 -0.057517298
-0.08085975 0.066586055 -0.12071919 0.024218364 -0.11302441 -0.0845889 0.08481937 -0.08353046
-0.00086990383 0.030147348 0.048668742 0.07650153 0.020038879 -0.0014580747 -0.0112372665 0.073450685
-0.03274609 -0.07827021 0.039941818 -0.012450103 -0.04353592 -0.07704836 -0.0863402 0.019508168
-0.10627653 0.0560961 0.05315615 0.13341966 0.12550218 -0.055327717 -0.08881271 -0.15571979
-0.04072745 -0.11465396 0.045714278 0.13825521 -0.15427381 0.085440405 -0.08197345 0.14632677
-0.14528549 0.14654796 -0.12525935 -0.15693706 -0.04064175 0.1456614 0.034181643 -0.0031366444
0.11620085 0.09103767 0.066469185 0.09434065 -0.12361361 -0.067005746 -0.04339162 -0.020046186
-0.1280768 -0.04722429 0.058525402 -0.13226263 -0.09674343 -0.16042486 -0.06391502 -0.15982606
0.061083347 0.05225033 -0.05254048 -0.052634884 0.036530875 -0.028594416 -0.034372747 0.15201318
-0.07281072 -0.019659016 0.08048391 -0.08836951 -0.058194835 -0.009332429 -0.15775774 0.101722136
0.03926323 0.13640442 0.09669955 -0.13125566 0.11600848 -0.15054403 0.14374107 0.08005607
0.029632688 -0.12844403 0.1227273 0.01145773 -0.12937455 -0.1415975 -0.10635885 -0.043798245
-0.13107514 -0.07735308 -0.13522273 -0.11675979 0.106942095 -0.065189764 0.06272113 -0.01805262
-0.058788512 -0.0066712257 -0.14321181 0.060853314 -0.0717605 0.107056834 -0.07376887 0.11489478

bias f4 [10]
00000000: b94b b4bd 690b 1b3e 975e 24be d116 c4bd
00000010: d930 1dbd c3c3 bcbd d9d3 973d 20e8 37bd
00000020: 084a 0fbd b656 85bd
-0.088035055 0.15141071 -0.16051708 -0.095746644 -0.038376663 -0.09217026 0.074134536 -0.044899106
-0.03498271 -0.065106794

weight f4 [2, 10]
00000000: fbbf 9dbe 7412 593e ba63 523e b568 9f3e
00000010: 15b0 473e 9a94 2d3e 27e9 c7bd a47c a5bc
00000020: 0785 d0bd fe7a 7cbe 8713 4cbe 0383 0a3e
00000030: 5050 babc dc79 2f3d 0290 0ebe b48e 003e
00000040: 90f8 89be 45b0 183d 1070 51be 2467 8a3b
-0.30810532 0.21198446 0.20545855 0.31134573 0.19500764 0.16951218 -0.09761267 -0.020201035
-0.10181623 -0.24656293 -0.19929324 0.1352654 -0.022743374 0.042840824 -0.13922122 0.12554437
-0.2694745 0.03727748 -0.20452905 0.004223721

bias f4 [2]
00000000: 6d0c 983e eb87 17bd
0.2969698 -0.036994856
