models/model (20, 10, 3) front=True epoch=20 batch_size=142578 lr=0.001.pt (torch, 44495 bytes, 8 tensors)

weight f4 [20, 500]
0.0082263425 -0.022787422 -0.012590859 0.021818293 -0.03588125 -0.0209058 -0.010978866 -0.018653259
-0.0013340728 0.02943936 -0.026874468 -0.015857056 0.03700934 -0.03552504 -0.034817737 -0.0030483142
-0.030052634 -0.049319655 0.006535707 -0.02422736 -0.0014281068 0.026508152 -0.04171416 0.01416294
-0.0069606537 0.031038774 -0.036581904 0.038026996 -0.029118171 -0.00950581 -0.037950773 -0.011349505
-0.010076058 0.010675878 0.000781668 -0.021221925 0.01768634 -0.013270649 0.021139115 -0.035959948
-0.011872976 -0.04211175 -0.04441927 -0.0055034277 0.039981317 -0.04285138 0.030082736 0.0061061536
-0.022819092 0.025775691 -0.0020580715 0.001396654 -0.023450129 -0.019466348 0.02862296 0.011000735
0.016861798 -0.020785075 -0.01217639 -0.0016797094 -0.022512825 0.0040410734 -0.011935525 -0.024877131
-0.008701435 -0.016232478 -0.029876133 0.015908498 -0.016652562 -0.03153922 -0.021932917 0.0074268016
-0.009576118 -0.003269442 0.024621256 -0.011371989 -0.01717305 -0.027130144 -0.007103218 -0.011835428
0.00935724 0.038373433 0.007391831 -0.020432042 0.030421836 0.03699075 0.032596856 -0.019412097
-0.035722 0.025785888 0.03766946 0.03268734 0.026394896 0.015405064 0.017808951 0.010804017
-0.0044537443 0.003366583 0.037478074 -0.009029247 0.034042414 0.0029996561 0.020987881 0.0021963848
-0.015728856 -0.046674453 0.024870668 -0.02967155 -0.00087638665 0.01163416 0.01580281 -0.029965788
0.039277952 0.040826008 0.023270955 0.008227347 0.017130239 -0.018993482 -0.03764308 -0.021664122
0.03111297 -0.038000587 -0.041155852 -0.014852198 0.024626847 0.025788402 0.024736017 -0.003256355
0.0012962176 -0.0256593 0.0363116 0.0110186385 -0.042011455 0.020689335 0.014948955 -0.016642846
-0.0139003005 -0.008096993 -0.010812206 0.0036557533 -0.014930009 -0.025214393 -0.019950708 0.005085037
0.036143612 0.036062308 -0.022603678 -0.020123703 0.035481542 -0.04792871 0.0040502124 -0.026291776
-0.015326434 0.017875528 -0.012928265 -0.0019132328 0.013364492 -0.039527334 0.020923909 0.013616556
-0.03097698 -0.0131086195 -0.04013192 0.041810535 0.03099776 0.032593545 -0.0057191933 0.033325836
0.01255714 -0.034317054 0.029563205 -0.033006806 -0.0215058 0.002751262 -0.005363668 0.025628038
0.019173946 0.040091574 0.04095534 -0.034899745 -0.03840535 0.027291385 -0.047496613 -0.010406307
-0.044024866 -0.017651498 0.023879053 0.028033916 -0.0369116 -0.043920305 0.008071706 -0.04368669
-0.0188681 -0.031606138 0.007387511 -0.045612678 -0.029679792 -0.030387225 0.022422053 0.016998744
-0.01642509 -0.028778952 -0.024231227 0.034399018 0.0034634245 -0.01951255 0.016243747 0.006668851
-0.012673412 0.016977437 0.01900948 -0.026035096 -0.024694813 0.041863125 -0.034607142 -0.02221276
0.020620922 -0.043217912 -0.024992377 -0.026489882 0.016080294 -0.016124858 0.035297964 -0.004645602
-0.017542575 -0.013570445 0.009179484 -0.014685826 -0.036744174 0.032973852 0.03669634 -0.027337752
0.024304854 -0.021682238 -0.026990155 0.03723268 -0.044908773 0.017318387 0.013292245 -0.023498146
0.015813766 0.03547142 -0.037563406 0.015029697 0.02640371 0.0030551627 -0.0021756561 0.035263278
-0.03720966 -0.0040725656 0.031112796 0.014782716 0.036584534 -0.012664683 -0.033598687 -0.04395313
00000000: c8c7 063c b0ac babc e449 4ebc 47bc b23c
00000010: 38f8 12bd a442 abbc b4e0 33bc b8ce 98bc
00000020: 0edc aeba d02a f13c d827 dcbc a8e6 81bc
00000030: 1b97 173d b482 11bd 0b9d 0ebd 3ac6 47bb
00000040: f130 f6bc 6803 4abd 7c29 d63b 7578 c6bc
00000050: 502f bbba a027 d93c 78dc 2abd ad0b 683c
00000060: 3216 e4bb 0745 fe3c e8d6 15bd 32c2 1b3d
00000070: 3b89 eebc 42be 1bbc 4572 1bbd 46f3 39bc
00000080: 0d16 25bc e1e9 2e3c dae8 4c3a 9ad9 adbc
00000090: f1e2 903c 236d 59bc f02b ad3c bd4a 13bd
000000a0: df86 42bc 5f7d 2cbd fbf0 35bd 1956 b4bb
000000b0: 73c3 233d ee84 2fbd 1270 f63c 2116 c83b
000000c0: 1bef babc 8b27 d33c b6e0 06bb ef0f b73a
000000d0: 7c1a c0bc e477 9fbc b37a ea3c 6d3c 343c
000000e0: c121 8a3c 7645 aabc 7b7f 47bc b229 dcba
000000f0: d16c b8bc fb6a 843b 388d 43bc 20cb cbbc
00000100: 7790 0ebc f9f9 84bc cbbe f4bc 8a52 823c
00000110: f46a 88bc 452f 01bd a9ac b3bc 875c f33b
00000120: 26e5 1cbc 2244 56bb 84b2 c93c 9451 3abc
00000130: 7fae 8cbc 0940 debc 1dc2 e8bb 62e9 41bc
00000140: 1c4f 193c 762d 1d3d 2c37 f23b 1961 a7bc
00000150: 3737 f93c 9d83 173d 4884 053d 1e06 9fbc
00000160: 3b51 12bd ed3c d33c 4b4b 1a3d 29e3 053d
00000170: 1c3a d83c 8665 7c3c 14e4 913c 5503 313c
00000180: b7f0 91bb e4a1 5c3b 9c82 193d 68ef 13bc
00000190: 0f70 0b3d e195 443b c7ee ab3c 39f1 0f3b
000001a0: cdd9 80bc b62d 3fbd 92bd cb3c c011 f3bc
000001b0: 50bd 65ba 349d 3e3c e574 813c d07a f5bc
000001c0: ebe1 203d 2c39 273d bba2 be3c ffcb 063c
000001d0: b754 8c3c 3898 9bbc a12f 1abd f578 b1bc
000001e0: a1e0 fe3c 81a6 1bbd 0a93 28bd a256 73bc
000001f0: 3ebe c93c 3342 d33c 30a3 ca3c 9268 55bb
00000200: d8e5 a93a 7433 d2bc 79bb 143d 8587 343c
00000210: 3414 2cbd ae7c a93c 76ec 743c 9456 88bc
00000220: 16be 63bc 40a9 04bc ae25 31bc 5d95 6f3b
00000230: ff9c 74bc 6a8e cebc ab6f a3bc 62a0 a63b
00000240: 530b 143d 12b6 133d 592b b9bc 77da a4bc
00000250: 1855 113d e550 44bd a5b7 843b da61 d7bc
00000260: b91b 7bbc b36f 923c 13d1 53bc 71c5 faba
00000270: bef6 5a3c 6ae7 21bd 9e68 ab3c fa17 5f3c
00000280: 70c3 fdbc 89c5 56bc 5e61 24bd 8641 2b3d
00000290: 04ef fd3c cf80 053d 1268 bbbb ac80 083d
000002a0: 76bc 4d3c 0a90 0cbd 892e f23c 2532 07bd
000002b0: ee2c b0bc 844e 343b b5c1 afbb e4f1 d13c
000002c0: ae12 9d3c 1037 243d c9c0 273d 09f3 0ebd
000002d0: ee4e 1dbd 2f92 df3c cf8b 42bd 377f 2abc
000002e0: 6b53 34bd e099 90bc 019e c33c 62a7 e53c
000002f0: 9e30 17bd c7e5 33bd 303f 043c d1f0 32bd
00000300: 4691 9abc 7075 01bd ef12 f23b 5cd4 3abd
00000310: 0923 f3bc a1ee f8bc 74ae b73c f340 8b3c
00000320: e98d 86bc d6c1 ebbc 9180 c6bc fce5 0c3d
00000330: 9ffa 623b c9d8 9fbc 9b11 853c 6086 da3b
00000340: 25a4 4fbc 4414 8b3c c5b9 9b3c 8e47 d5bc
00000350: c74c cabc ab78 2b3d 38c0 0dbd 89f7 b5bc
00000360: 35ed a83c 4405 31bd d0bc ccbc 4f01 d9bc
00000370: d2ba 833c 4718 84bc 9994 103d 223a 98bb
00000380: 72b5 8fbc 9256 5ebc 8c65 163c d29c 70bc
00000390: 0f81 16bd 970f 073d e74e 163d 6cf3 dfbc
000003a0: f91a c73c f39e b1bc 751a ddbc 4b81 183d
000003b0: 43f2 37bd 4adf 8d3c b7c7 593c 2f7f c0bc
000003c0: df8b 813c 7b4a 113d 16dc 19bd 1e3f 763c
000003d0: 984c d83c 2039 483b 7495 0ebb 3a70 103d
000003e0: 2869 18bd 2873 85bb 43e0 fe3c 3433 723c
000003f0: aad9 153d 887f 4fbc c79e 09bd 3208 34bd

bias f4 [20]
-0.033432677 -0.04817188 -0.0013414143 -0.039644375 -0.016157731 -0.018737925 -0.0033641558 -0.030154873
0.033351835 0.029093778 -0.011647503 -0.018666852 -0.006431951 0.04928273 0.013192363 -0.030472284
-0.01439338 0.018210862 0.021639435 0.00452637
00000000: b4f0 08bd e14f 45bd 65d2 afba 2462 22bd
00000010: 385d 84bc 4780 99bc 2b79 5cbb 5a07 f7bc
00000020: ef9b 083d 1356 ee3c 2bd5 3ebc 3aeb 98bc
00000030: 1ec3 d2bb b0dc 493d c824 583c 03a1 f9bc
00000040: 36d2 6bbc f22e 953c 2f45 b13c f251 943b

weight f4 [10, 20]
0.033192486 -0.19526416 -0.045945283 0.16827649 -0.059223503 0.085700296 -0.17027096 -0.18028657
-0.032296337 -0.017289149 -0.22562791 0.0039725495 0.020941112 0.18038395 -0.053448536 0.16502832
-0.04764504 -0.0398533 0.13198173 -0.06247484 0.0038990194 0.12000433 -0.034707665 -0.16271013
0.20043784 0.12099734 0.055988073 0.084550254 -0.014825144 -0.09482398 -0.19345936 -0.14654939
0.0019532058 -0.0027989282 -0.1773153 -0.17905863 0.08723016 0.18075438 0.21493714 0.21011116
-0.14928801 0.21328254 0.099518746 0.105762556 0.11375475 -0.073711 -0.009261549 -0.06930655
-0.08481211 -0.1739817 0.15974599 -0.16215299 0.18102223 0.045410432 0.17746714 -0.08300961
0.16527617 -0.16367988 0.13661219 0.09743071 0.008442078 0.024621053 -0.20516288 -0.044528652
0.02168329 0.14285523 0.10170376 0.19411767 -0.18362406 0.1018679 -0.013643698 -0.20036095
0.0008560492 -0.12583289 0.16299675 -0.114899196 0.17093536 -0.15847445 -0.08043566 -0.019299231
0.15620142 0.0030620124 0.071408615 -0.23387054 0.18754704 -0.09957602 0.18057212 0.055733904
0.11454974 -0.13754652 -0.22410148 0.21269016 0.053796187 -0.1465001 -0.016033417 -0.004034622
-0.22123434 -0.19079392 0.15007453 -0.03186926 -0.032205015 0.03388793 -0.10409092 -0.12205897
-0.08729975 0.18140918 -0.048502613 0.02269738 -0.100859985 -0.09252429 -0.018666837 -0.06570103
-0.19209546 0.1471954 0.22252943 -0.16705614 0.13665022 0.094798416 -0.18049015 -0.19422573
0.041893084 0.09581085 0.2087595 -0.16126494 -0.13752408 -0.15955329 -0.22837828 -0.1731653
0.058796167 0.1358728 -0.06838502 0.19977099 0.013991331 0.005779374 0.11697896 0.13412349
0.034873612 -0.08970673 0.16633615 0.21071729 -0.017018056 -0.18331844 0.010601052 -0.10249239
-0.114757635 -0.1632403 -0.083164886 -0.011414087 0.08023102 0.15388314 -0.1523755 -0.06951743
0.0650013 -0.14055459 0.18228036 0.020148214 -0.15938194 -0.15920901 0.00048587288 0.13827325
0.22426638 0.11465558 0.08600214 -0.17840406 0.008931879 0.22089691 -0.057209335 0.04200157
0.06095956 0.1726813 -0.04354409 -0.09851305 -0.06106474 0.058745064 0.07523521 -0.17041431
0.21584341 0.087222874 -0.14719939 -0.03250927 0.14775644 -0.18591012 -0.059290953 0.109834656
0.21870573 0.061093554 0.21555166 0.10839215 0.22885267 -0.07916846 -0.09635389 -0.1888572
-0.088933155 -0.16613339 -0.13540371 -0.089456394 0.0068187374 -0.2066383 0.19023691 -0.17105162
00000000: d8f4 073d 54f3 47be 1f31 3cbd ac50 2c3e
00000010: 5894 72bd a383 af3d 835b 2ebe 0b9d 38be
00000020: 2a49 04bd f9a1 8dbc 010b 67be 292c 823b
00000030: b28c ab3c 92b6 383e daec 5abd 2ffd 283e
00000040: 7227 43bd 373d 23bd 3826 073e 9ee5 7fbd
00000050: b186 7f3b d5c4 f53d a029 0ebd 7c9d 26be
00000060: 943f 4d3e 74cd f73d c053 653d af28 ad3d
00000070: 29e5 72bc 1333 c2bd 361a 46be 0b11 16be
00000080: 5b01 003b 396e 37bb 2492 35be 255b 37be
00000090: baa5 b23d ad17 393e 7b18 5c3e 6127 573e
000000a0: f5de 18be bd66 5a3e 7cd0 cb3d 0a9a d83d
000000b0: 40f8 e83d cbf5 96bd c1bd 17bc 98f0 8dbd
000000c0: f9b1 adbd 4228 32be 7494 233e 6f0b 26be
000000d0: e45d 393e 4a00 3a3d f2b9 353e f100 aabd
000000e0: 283e 293e b39b 27be 11e4 0b3e c189 c73d
000000f0: a450 0a3c 17b2 c93c 3816 52be ad63 36bd
00000100: 28a1 b13c a448 123e 104a d03d c8c6 463e
00000110: f207 3cbe 1ea0 d03d d189 5fbc 6c2b 4dbe
00000120: 7d68 603a 56da 00be 9fe8 263e 4550 ebbd
00000130: ae09 2f3e 2047 22be 74bb a4bd 6c19 9ebc
00000140: 44f3 1f3e 0bac 483b ae3e 923d c27b 6fbe
00000150: 550c 403e 83ee cbbd e6e7 383e 3c49 643d
00000160: 0e99 ea3d ffd8 0cbe dc7a 65be 73cb 593e
00000170: 6459 5c3d 1f04 16be 8358 83bc dd34 84bb
00000180: 418b 62be 7b5f 43be 23ad 193e 5789 02bd
00000190: 68e9 03bd 12ce 0a3d 9f2d d5bd 0efa f9bd
000001a0: 36ca b2bd 54c3 393e adaa 46bd dbef b93c
000001b0: ae8f cebd 607d bdbd 32eb 98bc 438e 86bd
000001c0: acb4 44be 64ba 163e c1de 633e c410 2bbe
000001d0: 09ee 0b3e ac25 c23d 69d2 38be 1ce3 46be
000001e0: 1598 2b3d 7b38 c43d 0dc5 553e a322 25be
000001f0: 1dd3 0cbe f061 23be ffdb 69be 3f52 31be
00000200: 40d4 703d 3d22 0b3e 720d 8cbd c490 4c3e
00000210: e53b 653c e760 bd3b aa92 ef3d ab57 093e
00000220: a2d7 0e3d 29b8 b7bd 0654 2a3e 46c6 573e
00000230: 7369 8bbc d4b7 3bbe 09b0 2d3c 88e7 d1bd
00000240: 0d06 ebbd 7728 27be 5a52 aabd 2702 3bbc
00000250: 2950 a43d 8b93 1d3e 5308 1cbe 285f 8ebd
00000260: 671f 853d 8bed 0fbe b4a7 3a3e de0d a53c
00000270: 0535 23be b007 23be c1bc fe39 8197 0d3e
00000280: 16a6 653e 8bd0 ea3d e421 b03d 8eaf 36be
00000290: 0457 123c cd32 623e 5654 6abd d709 2c3d
000002a0: bbb0 793d 5ed3 303e 4a5b 32bd 36c1 c9bd
000002b0: 051f 7abd aa9e 703d eb14 9a3d 1781 2ebe
000002c0: 0e06 5d3e e8a1 b23d 70bb 16be 7128 05bd
000002d0: 774d 173e 395f 3ebe 12db 72bd fef0 e03d
000002e0: 65f4 5f3e 3c3d 7a3d 93b9 5c3e b4fc dd3d
000002f0: 5b58 6a3e 1323 a2bd 3055 c5bd c863 41be
00000300: 9622 b6bd df1e 2abe 45a7 0abe ea34 b7bd
00000310: b76f df3b fe98 53be 77cd 423e 2828 2fbe

bias f4 [10]
0.19886307 -0.13085106 0.16924646 0.11893481 0.12274477 0.22305244 -0.08794574 0.08741264
-0.016818788 0.014796955
00000000: c3a2 4b3e d2fd 05be f24e 2d3e 1894 f33d
00000010: 9c61 fb3d dc67 643e e51c b4bd 6605 b33d
00000020: 8ec7 89bc ed6e 723c

weight f4 [3, 10]
0.03635283 -0.13681859 -0.06627389 -0.13370875 0.21758908 -0.094053 0.04206706 0.31053197
0.24700668 -0.2374259 0.054906145 -0.003048989 -0.06931346 0.12329116 0.09886355 -0.24959455
0.2752133 0.053708356 -0.15105891 -0.062086 -0.01725668 -0.106867164 -0.29616028 0.043473307
-0.18272582 -0.23795547 0.016836544 -0.12502022 0.260683 0.261512
00000000: b4e6 143d 2c1a 0cbe 9bba 87bd f2ea 08be
00000010: accf 5e3e dc9e c0bd 824e 2c3d 0cfe 9e3e
00000020: 52ef 7c3e c61f 73be 44e5 603d 8cd1 47bb
00000030: 37f4 8dbd 1380 fc3d f978 ca3d b795 7fbe
00000040: c2e8 8c3e 4bfd 5b3d 30af 1abe e44d 7ebd
00000050: e25d 8dbc 2cdd dabd 52a2 97be 1111 323d
00000060: 7a1c 3bbe 99aa 73be cbec 893c 4d05 00be
00000070: 3e78 853e e7e4 853e

bias f4 [3]
0.18176134 0.04699767 -0.1481955
00000000: a51f 3a3e a180 403d 90c0 17be

weight f4 [2, 3]
-0.33560553 -0.37238663 0.53086364 0.2624393 -0.22392648 -0.40572518
00000000: 7dd4 abbe 76a9 bebe aee6 073f 725e 863e
00000010: fc4c 65be 36bb cfbe

bias f4 [2]
-0.33944845 -0.25504017
00000000: 30cc adbe a094 82be
