models/model (100, 40, 10) front=True epoch=20 batch_size=142578 lr=0.01.pt (torch, 221767 bytes, 8 tensors)

weight f4 [100, 500]
000000 0d b4 d6 bd 9a 5d a3 bd bd ce c2 bc 01 c2 d2 bc
       -0.10483561 -0.079768375 -0.023780221 -0.025727274
000010 0a dc bc bc c5 91 78 bc e2 3e 2c bd 0e 60 39 bd
       -0.023054142 -0.015171473 -0.042052157 -0.04525762
000020 8e c0 7b bc 6c 6d 28 bd 8a 83 c8 bd 65 a9 03 bd
       -0.015365733 -0.041119978 -0.09790714 -0.03214397
000030 6b 0a af bd e4 2a 7b bd a3 93 8a bc a9 19 83 bd
       -0.08546909 -0.0613202 -0.016916102 -0.06401379
000040 90 d5 a5 bd 75 ee 4e bd ef 7f 8d bd af 63 c3 bd
       -0.080973744 -0.05052038 -0.06909167 -0.095404975
000050 4d f2 bd bc c3 48 90 bd e6 c0 d3 bd 5e e2 91 bc
       -0.023186827 -0.07045128 -0.10339527 -0.017808136
000060 18 38 28 bd 71 34 dd bc 37 6a d2 bc 7c e4 40 bd
       -0.04106912 -0.027002545 -0.025685413 -0.0470929
000070 92 40 37 bd 59 bb 41 bd 20 da 8c bd 1b a7 bc bc
       -0.044739313 -0.04729781 -0.068775415 -0.0230289
000080 1e b5 ae bd b3 13 b4 bd 96 8b f9 bc 5c ba 3a bd
       -0.08530639 -0.0879282 -0.030462068 -0.045587882
000090 42 41 df bc 88 fc c5 bc 5d c9 b8 bc 4e f9 cb bc
       -0.027252797 -0.024168268 -0.022556955 -0.024899151
0000a0 d0 d9 cc bd b8 4d 93 bd 45 c1 86 bc db 1e a8 bd
       -0.10002482 -0.07192558 -0.01644958 -0.0820901
0000b0 ab 1b ae bd 1a 41 79 bd 20 e4 88 bd 2f 52 9b bd
       -0.08501371 -0.0608531 -0.066841364 -0.07584035
0000c0 30 dd 2a bd 63 05 7e bc 2e a3 9a bd 5f 6e b1 bd
       -0.041714847 -0.015504214 -0.07550655 -0.0866363
0000d0 42 d1 39 bd c6 22 87 bc 19 76 99 bd 42 28 4e bd
       -0.04536558 -0.016496073 -0.074932285 -0.05033136
0000e0 b3 6f af bd cc ed af bd 58 84 af bd fb a5 48 bd
       -0.08566227 -0.08590278 -0.085701644 -0.048986416
0000f0 eb 26 0c bd 99 b2 a0 bd 26 64 c1 bd ab 09 32 bd
       -0.034216803 -0.07846565 -0.0944293 -0.04346625
000100 4a 0a 8c bd 46 02 8e bd 81 36 7a bd 30 de 8b bd
       -0.068379 -0.069340274 -0.061087135 -0.06829488
000110 bf a6 9f bd ad ef b3 bd 09 38 4c bd 31 4c b4 bd
       -0.07795476 -0.08785949 -0.049858127 -0.08803595
000120 30 dd 9d bd 04 f4 a0 bd ee f2 a7 bd e0 cf af bc
       -0.07708204 -0.07859042 -0.08200632 -0.021461427
000130 f7 91 fd bc cb 0d 38 bd f5 f4 81 bd 78 ba 7b bd
       -0.03095339 -0.04493503 -0.0634555 -0.061457127
000140 dc de 00 bd 05 85 82 bd 8b 4d 9b bd 68 8a 91 bd
       -0.031462535 -0.06373028 -0.075831495 -0.07106477
000150 2e ad 2d bd 07 ef 81 bd 93 f6 71 bd ab 5b 85 bd
       -0.042401485 -0.06344419 -0.059073042 -0.06511625
000160 42 ee 9d bd ea 16 c5 bd ca 65 aa bd e9 be 82 bd
       -0.0771146 -0.09623511 -0.08320196 -0.063840695
000170 bb 6f 3f bd ea 4c 08 bd 68 72 7c bd 28 fd cf bc
       -0.046737414 -0.033276476 -0.061632544 -0.025389269
000180 ad 19 c3 bd fd 67 06 bd f7 0e 33 bd b3 65 50 bd
       -0.09526382 -0.032814015 -0.043715443 -0.050878238
000190 26 29 75 bd 50 1c bb bd 01 bb c9 bd 3c ef ad bd
       -0.059853695 -0.091362596 -0.09850121 -0.08492896
0001a0 40 c5 b9 bd 00 c0 b5 bd 4b de 75 bd cf 80 bd bd
       -0.090708256 -0.08874512 -0.06002645 -0.09253084
0001b0 86 5d bd bc d7 18 93 bd 86 38 95 bd 0a f4 78 bd
       -0.023115885 -0.07182472 -0.072861716 -0.06077961
0001c0 db 71 a3 bd d8 eb d4 bc 63 6b 61 bd ca 30 10 bd
       -0.079807006 -0.025991365 -0.055034053 -0.03520278
0001d0 90 85 81 bd 84 1b ae bc 86 f5 a0 bc 55 f0 61 bd
       -0.06324303 -0.021253355 -0.019648325 -0.05516084
0001e0 f4 f4 96 bc 7e df e8 bc a0 18 cd bc e5 76 24 bd
       -0.01842735 -0.028426882 -0.025036156 -0.04015245
0001f0 69 49 92 bd 82 f1 be bd 40 72 8b bd 43 18 7c bd
       -0.07142908 -0.09323408 -0.06808901 -0.061546575
000200 a4 27 e8 bc 5e 59 87 bc 20 cb 95 bd 4d 9f d0 bd
       -0.028339215 -0.016522106 -0.07314134 -0.10186634
000210 24 08 e0 bc fe 57 4b bd f9 0f 9f bd 02 a8 a6 bd
       -0.027347632 -0.049644463 -0.077667184 -0.08137514
000220 41 09 3d bd 2e 0d e1 bc f7 a4 21 bd a0 ea c5 bc
       -0.046151403 -0.027472105 -0.039463963 -0.02415973
000230 f2 26 a5 bd e7 57 d3 bd 10 ca 8f bd 70 bc 83 bd
       -0.08064069 -0.103195004 -0.07020962 -0.06432426
000240 77 cb 1c bd bf 5c 9d bd 63 45 28 bd f9 5b 0c bd
       -0.038279977 -0.076837055 -0.041081797 -0.0342674
000250 45 6c be bd 79 e6 9b bd ee 57 b5 bd c3 3a 27 bd
       -0.092979945 -0.076123185 -0.08854662 -0.040827524
000260 6a bc ec bc eb f8 ac bd 6d 54 0a bd b6 ea 61 bd
       -0.028898437 -0.08445915 -0.03377192 -0.05515548
000270 27 0e aa bd 67 79 bd bd 97 ac 95 bc f7 a5 c8 bd
       -0.083034806 -0.09251671 -0.018270774 -0.0979728
000280 7c 07 00 bd 89 36 9c bc 15 97 18 bd c8 b9 19 bd
       -0.031257138 -0.019068973 -0.037253458 -0.03753069
000290 1b 4e 60 bd 21 dd 22 bd 0b ec a9 bd e5 94 13 bd
       -0.054761987 -0.039761666 -0.08296975 -0.03603067
0002a0 cf d6 8f bd 2c 50 82 bd 5e 97 af bd be 5f 5a bd
       -0.07023393 -0.06362948 -0.08573793 -0.053313963
0002b0 58 d2 50 bd d0 db 02 bd 91 4d c9 bd 7d 35 aa bc
       -0.05098185 -0.03194791 -0.09829248 -0.020777458
0002c0 7b b9 18 bd ad ad c3 bd b4 4d aa bd c9 77 d3 bd
       -0.037286263 -0.095546104 -0.08315602 -0.103255816
0002d0 0d 32 1a bd db 44 d4 bd 30 2a a4 bd d1 6e c7 bd
       -0.03764539 -0.10364696 -0.08015859 -0.097379334
0002e0 1e 99 8a bc db 6e 94 bd b6 3a 84 bd 68 d7 ae bd
       -0.016918715 -0.072477065 -0.06456511 -0.08537179
0002f0 48 70 85 bd 79 73 b0 bd 4d a0 63 bd d2 0c 7e bd
       -0.065155566 -0.08615775 -0.055572797 -0.062023945
000300 f7 ae 05 bd 26 fc 46 bd e4 0f cd bd 2f 34 b6 bd
       -0.032637563 -0.04858031 -0.100127965 -0.08896672
000310 d0 d4 84 bc 6e 39 82 bd dc 9c 70 bd 61 5e d3 bd
       -0.016214758 -0.0635861 -0.058743343 -0.10320736
000320 05 5c d4 bd 60 b7 7e bc 50 a2 2d bd a9 62 2b bd
       -0.10369114 -0.01554665 -0.04239112 -0.041842137
000330 48 22 29 bd f8 ac 15 bd 84 2a 98 bd f1 0a 23 bd
       -0.04129246 -0.03654191 -0.07429984 -0.039805356
000340 8b 85 c3 bd e3 84 2f bd 9e 74 cc bc 2c e9 bd bc
       -0.09546956 -0.04285134 -0.024957951 -0.023182474
000350 df 23 b5 bc 42 9f c0 bd 10 95 ba bd 68 45 a2 bd
       -0.022111831 -0.09405376 -0.09110463 -0.079233944
000360 15 aa cd bd 23 2d 43 bd fd d2 09 bd ea 6e 31 bd
       -0.10042206 -0.047650468 -0.03364848 -0.043318667
000370 a4 26 bc bd 79 01 d5 bd fb dc 44 bd 3f 4d 8a bd
       -0.091870576 -0.104006715 -0.048062306 -0.06753015
000380 7e 77 5e bd e9 cf 43 bd 8c 16 60 bd 3d 59 9d bd
       -0.054313175 -0.0478057 -0.054709002 -0.076830365
000390 13 f4 8f bd c3 26 17 bd 77 01 d1 bc 7f 88 c1 bd
       -0.07028975 -0.0369022 -0.025513394 -0.09449863
0003a0 91 ed 92 bd eb 32 2d bd 6e ce d1 bd 2f c8 39 bd
       -0.071742184 -0.042284887 -0.102444515 -0.045356926
0003b0 66 ed 41 bd cb 1a 88 bd fc fc 44 bd 92 80 91 bd
       -0.04734554 -0.06645735 -0.048092827 -0.07104601
0003c0 c1 be 9f bd 25 ee 73 bd 67 83 45 bd 25 c2 e8 bc
       -0.07800055 -0.059553284 -0.04822102 -0.028412888
0003d0 67 4b ad bd 5b 14 81 bd b9 fa 59 bd 02 e8 40 bd
       -0.084616475 -0.063027106 -0.053217623 -0.04709626
0003e0 ea 87 ad bd c8 68 8d bd 3d 84 97 bd 21 11 87 bd
       -0.08473189 -0.06904751 -0.07398269 -0.06595064
0003f0 e3 0a cb bd c1 ad 57 bd a1 04 e0 bc b0 87 0a bd
       -0.09914186 -0.05265594 -0.027345957 -0.033820808

bias f4 [100]
000000 5b 3a 14 bd fe cc a8 bc 98 77 af bb 31 85 95 bd
       -0.036188465 -0.02060556 -0.005354833 -0.07300795
000010 72 16 c2 bc da 26 95 bd 19 e5 7d bd 9a c7 77 3c
       -0.023692343 -0.07282801 -0.061986063 0.015123272
000020 13 f9 06 3c 45 eb a6 bb f8 08 22 3d 9d 37 4b 3d
       0.008238095 -0.0050939643 0.039559335 0.049613584
000030 82 6c ac bc a5 af b1 3c ee 7d 12 3d e3 75 83 3d
       -0.021047834 0.0216902 0.035764627 0.064189695
000040 c9 ca 3f 3c 2b f6 25 bd 87 1a 7d 3d 4b cd 33 bc
       0.011706063 -0.040517967 0.061792877 -0.010974239
000050 84 60 d9 bc 02 a6 84 bd 06 1c d3 3b 0c b4 b6 bd
       -0.02653528 -0.06476976 0.0064425496 -0.0892106
000060 c3 e8 83 bd c2 68 54 bd a3 9e ab bb ab c4 d0 3b
       -0.0644088 -0.051857717 -0.005237417 0.006371101
000070 67 16 4d bd 26 ed 58 ba 20 a9 a1 b7 fc 09 9c 3c
       -0.050070193 -0.0008275084 -1.927145e-05 0.01904773
000080 fd 74 c2 3b 08 68 95 bd ff 8f bc bb 53 f5 95 bd
       0.0059343562 -0.07295233 -0.0057544704 -0.073221825
000090 8e 74 37 bd 1c 0f bb bc b6 70 50 3d e3 d7 9a 3c
       -0.04478889 -0.022834353 0.05088874 0.018901771
0000a0 71 d6 4b bd 1b 82 44 bd 46 59 80 3c 9c a8 dc bc
       -0.049765054 -0.04797564 0.015667569 -0.026935868
0000b0 0d eb 8d bd 44 85 72 3d df b1 8a bd f3 fa 56 3d
       -0.06929598 0.059209123 -0.067722075 0.052485418
0000c0 2a a1 3b 3d 49 ac f4 3c e9 7a 4b 3d d3 4a ea bc
       0.045807995 0.029867308 0.049677763 -0.028600132
0000d0 d1 bc 75 3d ca b1 9b bd 93 e1 55 3d 5e f1 a1 3d
       0.059994522 -0.0760227 0.052217077 0.07907365
0000e0 72 e9 8a bd 5f 20 40 bd eb 3f e6 bc 7f 0e a4 bd
       -0.067828074 -0.04690587 -0.02810665 -0.080105774
0000f0 64 4a 24 bc 48 32 1e bd e1 03 19 3d 2e 2e 67 3d
       -0.010027502 -0.03862217 0.037357215 0.056440525
000100 1d 57 97 3c b4 ad 56 3d 20 60 d6 3b f4 08 9e bb
       0.018474156 0.05241175 0.0065422207 -0.0048228446
000110 42 c1 3a 3d 7f fb 20 3d a2 b6 8b bd 89 7a e6 bc
       0.04559446 0.039302345 -0.06821944 -0.028134601
000120 dc 83 f4 3c 06 13 fd 3c 9e 67 7f bc 7d c4 4c bd
       0.029848032 0.03089286 -0.015588669 -0.049992073
000130 8a a5 02 3d 81 2c 9f bc 8d 65 04 3c bf d8 92 bd
       0.03189615 -0.0194304 0.008080852 -0.07170247
000140 2f 7c 75 bd 2d 8d a8 bd 57 5c ef b9 e8 0d a3 bd
       -0.059932884 -0.08230052 -0.0004565443 -0.07961637
000150 cf 38 a3 bd 96 ba c4 3d 0b 6c da bb 52 01 0d 3d
       -0.0796982 0.09605901 -0.0066657118 0.034425087
000160 fb e1 26 3d 9f 13 8f bd 0f 67 4f 3d c6 5a 0b bc
       0.040742856 -0.06986164 0.050635394 -0.008505529
000170 77 ba 16 bd 7c f2 84 bd 71 56 c0 bc 6c d5 b1 bd
       -0.03679892 -0.06491563 -0.023478718 -0.08683285
000180 33 b2 a2 bd 18 df d4 3c af e7 be bd 5c 9b 35 bd
       -0.07944145 0.025985286 -0.09321534 -0.044337615

weight f4 [40, 100]
000000 2f 03 cd bd a1 29 a3 bd de 0c e0 bd 68 77 cb bd
       -0.10010373 -0.079669245 -0.10939954 -0.09934884
000010 47 e5 90 3d 53 c3 e3 bd 6d 4a e3 3b 73 f8 94 bd
       0.07074981 -0.111212395 0.0069363625 -0.072739504
000020 3f ce 8c bd 20 09 95 bd 30 db 9f bd 7f f5 ae bc
       -0.06875276 -0.07277131 -0.078054786 -0.021357296
000030 42 70 b3 bd 9e d3 19 3d 30 bf 41 bd 3d b6 d8 bd
       -0.08761646 0.03755533 -0.04730147 -0.10581634
000040 27 42 77 3d 2c 29 be 3d e7 38 8f bd 31 98 66 3d
       0.060365822 0.09285197 -0.06993275 0.056297485
000050 53 4b de bd 06 24 5e bd 3f d7 df bc ca 6d 84 bc
       -0.10854211 -0.054233573 -0.027324317 -0.016165633
000060 9d 55 ba bd 7e 2d 96 bd 5c 86 68 bb 7c fb a3 bb
       -0.09098361 -0.07332896 -0.0035480475 -0.0050043445
000070 f3 4e 82 3c d5 14 12 bd 2d c9 43 3d 0b 40 64 3d
       0.015906787 -0.0356644 0.047799278 0.05572514
000080 9e 01 be bc 3e d1 3a bd ba 06 f2 bd e0 96 e8 bd
       -0.02319413 -0.045609705 -0.11817689 -0.11356902
000090 57 f4 36 3d 2d ce 9a bc c0 cb d3 bd 41 be 7a 3b
       0.044666614 -0.01889714 -0.103415966 0.0038260373
0000a0 82 0c b1 bd 27 e6 dd 3c d2 1b 09 bd c8 c5 a6 bd
       -0.08644964 0.027087284 -0.033473797 -0.081431925
0000b0 c6 98 d8 bd aa 47 83 3d f7 cb e5 3b f6 7c 06 be
       -0.10576014 0.06410153 0.00701284 -0.13133606
0000c0 b5 2f ea bd 50 0f aa bd e6 e1 1e be 82 95 b8 3c
       -0.11434881 -0.08303702 -0.15515861 0.022532228
0000d0 39 2b 4c bd 7b 4c b9 bb 14 b9 21 3d 3f 64 12 be
       -0.049845908 -0.005654869 0.039483145 -0.14296053
0000e0 f0 9e 04 be 22 46 87 bd b2 73 64 bd 7b 4a 09 be
       -0.12951255 -0.06605174 -0.0557744 -0.13407318
0000f0 52 de 36 bd a3 5f c5 3c 08 57 01 bd e3 fc 9d bd
       -0.044645615 0.024093455 -0.03157714 -0.0771425
000100 b7 1f f4 bd 9d b9 4b bd e2 34 80 bd e6 76 16 bd
       -0.119201116 -0.04973756 -0.062600866 -0.036734484
000110 4d 95 14 be 38 5c d0 bd 3b 25 53 bd 59 64 e7 bd
       -0.14510079 -0.10173839 -0.051549178 -0.11298437
000120 2e a4 8f bd 96 55 5b 3d 0c c9 3f bd 3e 92 6a bd
       -0.07013737 0.053548418 -0.046822593 -0.057268374
000130 64 c9 1c 3c 88 ff 65 3d b2 39 cd bd 73 1f 45 3d
       0.0095695 0.056151897 -0.1002077 0.048125695
000140 20 dd 73 bc 40 e4 ca 3a bf 4d 76 bd f0 78 8f bd
       -0.014884263 0.0015479401 -0.06013274 -0.07005489
000150 29 9c 3b 3d 9c 8f a8 3c ef e0 9f 3c b1 89 f8 3b
       0.045803223 0.02057629 0.019516436 0.0075847735
000160 cf db 66 3d 23 27 58 3d 30 29 fa 3c 37 2c 6e bd
       0.05636197 0.0527717 0.030537218 -0.058147635
000170 63 e1 54 3d 1d 04 49 bd 57 2d b8 bd d1 70 6d 3d
       0.051972758 -0.04907619 -0.08993023 0.05796892
000180 a2 a5 64 bd 97 6a 4e 3d b1 0a a7 3c b3 56 b3 bd
       -0.055822022 0.05039462 0.02039084 -0.08756771
000190 1b 42 9c 3c b4 93 ee bc 76 88 1e 3d b6 be 19 bd
       0.01907449 -0.029123165 0.038704358 -0.03753539
0001a0 dd 54 da bc 7d 42 74 bc 77 22 c7 3c 67 d0 48 bd
       -0.026651794 -0.01490843 0.024308426 -0.049026873
0001b0 ba 04 0e bd a9 34 36 bd 64 34 5c bd 5e 23 91 bd
       -0.034672476 -0.044483814 -0.0537609 -0.07086824
0001c0 34 cb 45 3d 1c db 55 bc 68 5c 62 bd b0 9b fc bd
       0.048289493 -0.013052728 -0.055263907 -0.123343825
0001d0 79 a2 11 be 96 02 fb 3d 0b 35 af 3a 97 4d bd bd
       -0.14222135 0.122563526 0.0013367248 -0.09243315
0001e0 07 5e d2 bd 04 0f 23 3d 77 41 e5 bd 6e 6b 81 3a
       -0.102718405 0.039809242 -0.11194127 0.0009873935
0001f0 dc 70 ef bd c5 11 87 bd 80 36 48 bc 9c 8a e6 bc
       -0.11691448 -0.06595186 -0.012220025 -0.028142266
000200 f5 59 bb bd f9 aa 00 bc c2 69 17 3d d6 30 d3 bc
       -0.09148017 -0.007853263 0.036966093 -0.025780123
000210 1b 09 7b bb f1 94 21 3c 6c 9e cb bd 3d 79 08 be
       -0.0038304988 0.009862171 -0.09942326 -0.13327499
000220 bb c6 38 bd eb 0e 09 bd cf 6f b4 bd 6b 03 83 bd
       -0.0451114 -0.033461493 -0.08810388 -0.06397136
000230 5b 83 d1 3c f0 7b 7f bc 3f f4 ce bd 9f de 18 3d
       0.02557533 -0.015593514 -0.1010518 0.037321683
000240 ed 26 4c 3d 69 76 d6 bc 39 a4 44 3d f9 2a 01 be
       0.04984181 -0.02617951 0.048008177 -0.12614049
000250 55 8e 94 bd 39 df e2 bd 56 d4 55 bd cc d7 90 bc
       -0.0725371 -0.110777326 -0.052204452 -0.017681025
000260 fa d2 d8 bd 9b 7d ee 3c a7 6d 04 be c3 ba de bc
       -0.105871156 0.029112628 -0.12932454 -0.027188664
000270 82 e4 15 bd dd 59 68 3d e3 ae 77 bc 44 4d 92 3c
       -0.036594875 0.056726325 -0.01511738 0.017859109
000280 24 cd f5 bd d0 ad 1c 3d 9e e0 2f bd 35 97 90 bd
       -0.12002018 0.038251698 -0.04293882 -0.070600905
000290 02 e1 c3 bc 88 7c 98 bc ac 48 89 bd fe e9 04 3d
       -0.023911003 -0.018614069 -0.06703314 0.032449715
0002a0 c0 df da 3c 4b 27 47 3d 7e 91 2b 3d 77 26 07 bd
       0.02671802 0.048621457 0.0418868 -0.032995667
0002b0 be a8 56 bd 4d 5f 98 3d e7 04 d9 bd 16 33 b8 bb
       -0.05240702 0.07440052 -0.10596638 -0.0056213243
0002c0 db 30 bd bd 34 4d 2d 3c fb 09 36 3d 34 ee da 3c
       -0.09237834 0.010577489 0.044443112 0.026724912
0002d0 1a 09 2e 3d 00 f7 2d bb b3 c5 8b 3c 83 85 18 bd
       0.04248915 -0.0026544929 0.017062044 -0.0372367
0002e0 03 02 6c bd 73 da 78 bc 6f b8 48 bd f2 66 b9 bd
       -0.057619106 -0.015188801 -0.049004015 -0.090528384
0002f0 7e 02 bb bd 0e 02 50 bd 8f b3 e8 bc aa 36 16 be
       -0.09131335 -0.05078321 -0.028405933 -0.1466929
000300 05 ef 2d bd fd c4 27 bd c2 f3 05 3d cf 5d ee bd
       -0.042464275 -0.040959347 0.03270317 -0.11638986
000310 60 dd e1 bc 80 3c 0f be f5 e8 3b bd a7 41 20 3d
       -0.02757138 -0.13987923 -0.045876462 0.03912511
000320 d2 0c 72 3d 85 2c fd bd 05 be 37 3c 5f f3 8e bc
       0.059094258 -0.12362007 0.011214738 -0.017450033
000330 1b 00 c6 bd 95 28 00 3d 9a d1 84 bd 38 29 93 bc
       -0.09667989 0.031288702 -0.06485291 -0.01796399
000340 ee aa 20 bd a3 42 57 bd a3 14 be bd e7 70 61 3d
       -0.03922551 -0.052553784 -0.0928128 0.055039313
000350 41 28 11 3b ad fd b5 bd a1 37 0a 3d bf 6f 43 bc
       0.0022149237 -0.088862754 0.033744458 -0.011928498
000360 59 60 18 bc 21 31 1b 3d 31 dc f9 3c 1f 2d 01 3c
       -0.009300315 0.03788865 0.030500503 0.007884293
000370 d8 f8 72 3d 2f 6e 03 3d 8f 5d 56 3c de 91 ee bc
       0.059319347 0.0320875 0.01308383 -0.02912229
000380 3d 3f b7 bd c3 07 9c bc e0 9a 53 3c 68 63 36 bc
       -0.089476086 -0.01904667 0.012915343 -0.011132099
000390 ed 65 19 be d7 92 02 be 30 b8 a9 3c a9 ee 82 bd
       -0.14980288 -0.12751327 0.02071771 -0.06393177
0003a0 04 36 80 bd 0b 3b b5 bd 89 6e 35 bc 2d f4 9a bc
       -0.06260303 -0.08849152 -0.011073717 -0.01891526
0003b0 6b 43 f6 bc 36 d4 06 be 75 e3 16 bc ab 49 80 bd
       -0.030061444 -0.1316689 -0.009209503 -0.06264051
0003c0 87 08 dd bd 4c b6 c7 3c 42 21 9c bd e4 9f 84 bd
       -0.10792642 0.024378918 -0.07623531 -0.06475809
0003d0 36 0b 71 3d 1e af 39 bb 72 e9 00 be f3 66 a9 3b
       0.058848582 -0.0028333138 -0.12589052 0.005169743
0003e0 2f a0 9d bc 9c e1 da bc d1 3b 56 bd 2d d7 8d bd
       -0.01924142 -0.026718907 -0.05230314 -0.06925807
0003f0 55 fe b1 bd 76 4b da 3c 33 bf 4f bd 02 12 0f be
       -0.08691088 0.02664731 -0.05071945 -0.13971713

bias f4 [40]
000000 9a 3a 56 3c 36 aa c2 bc b9 a2 0b 3d d5 9c 1e be
       0.013075495 -0.023762804 0.03409073 -0.15489514
000010 f9 33 dc 3d c5 f0 97 3d a1 cc 85 3d 29 a2 da bd
       0.107521005 0.0741897 0.065331705 -0.10675461
000020 37 2a fa bc 8c fa e9 3c 6c 75 a6 bd f1 f6 ef bd
       -0.030537708 0.028561853 -0.08127865 -0.11717022
000030 fa 68 16 bd 4e f8 a3 bc 09 e6 03 3e 1e ae af 3c
       -0.036721207 -0.020015862 0.1288072 0.02144533
000040 dd 25 d5 bd e2 ab 01 be 66 32 4b bc a8 d5 15 be
       -0.104076125 -0.12663224 -0.012402153 -0.14632285
000050 7f f7 94 bc f9 27 d4 bc 89 f7 96 3b bf f4 94 bc
       -0.018184422 -0.025897967 0.004607145 -0.01818311
000060 91 ee 07 3e 6d 3d 30 3d 9f 24 2f 3d 6a b1 87 bc
       0.132746 0.04302733 0.042759534 -0.01656409
000070 18 ff ff bd 5d 61 01 bc f9 24 73 3d 72 14 1a bb
       -0.12499827 -0.007896748 0.05936143 -0.0023510722
000080 6f 20 ee bd a5 f9 c1 bd 51 40 01 be 52 60 0a bd
       -0.1162728 -0.09471444 -0.12622191 -0.033783264
000090 88 0c 10 3d 01 2e 04 bd 2f 5e fd bd 86 03 c4 bd
       0.0351682 -0.032270435 -0.1237148 -0.095709845

weight f4 [10, 40]
000000 8b 52 ae 3d cf f6 d0 3d e0 ea 0c bc 1d 3d d7 3d
       0.085118376 0.10203325 -0.00860092 0.10509703
000010 95 6c 44 be 31 49 a3 bd 4e d8 c8 bd fc 5f 02 3c
       -0.19182046 -0.079729445 -0.09806882 0.007957455
000020 e6 6d 96 3d bb 8d 75 3d 61 c4 8b 3d 15 21 83 3d
       0.0734518 0.059949618 0.06824566 0.06402794
000030 a4 46 20 bd b8 3d f2 3d aa 7f 52 be 13 a5 26 be
       -0.03912987 0.11828178 -0.20556512 -0.16273908
000040 59 f8 85 3d 6e 14 3a 3d 61 2c 40 be 9a b1 5b 3d
       0.06541509 0.04542964 -0.18766929 0.05363617
000050 06 40 d7 bd e0 d3 2b 3e 7d 9b 93 3d 46 b8 7b bd
       -0.105102584 0.16780043 0.072073914 -0.061455034
000060 c1 fd 6f bd d3 2d 12 bd 35 55 7a 3d fc ba 35 be
       -0.058591608 -0.035688233 0.061116416 -0.1774711
000070 3b 34 a9 3d ff 4f 14 be ca f5 37 3d 2c 6a b4 3d
       0.08261915 -0.14483641 0.044912137 0.08809313
000080 9f 99 91 bd 8d 89 ca 3d b2 e2 f7 3b 4c 10 4b 3d
       -0.07109379 0.09889517 0.007564866 0.04957609
000090 8a 59 2a be 1f 7b 73 3d 74 fc 84 bc 86 05 bf bd
       -0.16635719 0.05944359 -0.01623366 -0.093272254
0000a0 60 d6 c7 bc 42 83 83 bc ba 76 85 3d f5 dc c1 3d
       -0.024394214 -0.0160538 0.06516786 0.09465972
0000b0 ce a5 2c bd 4d 6f 84 bd b7 27 86 bc 0d ab 92 3d
       -0.04215031 -0.064665414 -0.01637636 0.071615316
0000c0 57 a2 bf bc 93 8f 48 be f5 b7 36 bd 55 ad 00 be
       -0.02339284 -0.19586019 -0.04460903 -0.12566121
0000d0 e4 88 a7 3d 52 ff 8a bd c0 ea 46 bd c9 1b 85 bd
       0.08180407 -0.0678698 -0.04856372 -0.0649944
0000e0 3a 9e a5 bd 17 f0 84 bd 2b 39 c6 bc 45 55 0f 3d
       -0.0808682 -0.06491106 -0.024197182 0.03499343
0000f0 d0 3f 39 bd 8a d5 4f 3d 7c 2c 6e bc 5a 56 94 bd
       -0.045226872 0.050740756 -0.014536973 -0.07243033
000100 44 11 18 be 8b 1e ae 3d b2 e5 f7 3c 3f c9 b9 bd
       -0.14850336 0.08501919 0.030260894 -0.09071588
000110 84 f9 02 bd 6e e7 c1 bd 81 85 95 3d c4 1f b2 bd
       -0.031976238 -0.0946797 0.073008545 -0.08697465
000120 84 1b 36 3e 1e dd 0b 3e 93 84 cc 3d b1 3e 7e 3d
       0.17783934 0.13658568 0.09986224 0.062071506
000130 5c c4 a0 3d fc 46 2d be 7f 25 01 be 1e df 86 bd
       0.078499526 -0.1692161 -0.1261196 -0.06585525
000140 91 ef 48 be dc 98 d0 bc 2e d6 18 bd 24 0e e5 3c
       -0.19622637 -0.025463514 -0.037313633 0.027960844
000150 60 8e f4 3d 73 fc 16 bd 01 36 25 be ee 84 f9 bd
       0.119412184 -0.036861848 -0.16133882 -0.121835575
000160 d5 50 86 bd 64 ba d6 bd 70 4a f0 bd 02 65 c8 3d
       -0.06558386 -0.1048477 -0.11732948 0.09784891
000170 c5 9a aa 3c c3 b8 89 bd 0e 30 0e be 3b 79 7a bd
       0.020825753 -0.067246936 -0.13885519 -0.06115077
000180 6f a8 09 be b7 6d 13 be de 4a 98 bd b8 a1 d4 bd
       -0.13443159 -0.14397322 -0.07436155 -0.10382408
000190 1d 1a fd bd 39 e0 fd bc db d0 bd bd 4a 5d ac 3c
       -0.12358496 -0.030990707 -0.09268352 0.021040577
0001a0 82 24 9d bd d6 1b 28 bd ef f8 25 be a5 71 ee bd
       -0.07672979 -0.04104217 -0.16208242 -0.1164277
0001b0 7c 6a c0 3d c5 ba 78 3d d2 e8 2f be de 20 0b 3d
       0.0939531 0.060724992 -0.17178658 0.03396689
0001c0 ff b1 54 be e4 f1 15 be 07 6d ec 3d 54 b4 52 bd
       -0.20771025 -0.14643055 0.11544233 -0.051441506
0001d0 16 b4 de 3c ab d3 26 3d 08 2f 4f ba 06 99 89 bd
       0.027185481 0.040729206 -0.00079034315 -0.0671864
0001e0 e9 f2 cb bc a6 a4 70 3d f7 24 3a be 54 2a 0b bd
       -0.024896102 0.05875077 -0.18178163 -0.033975914
0001f0 42 e1 4b 3c f8 63 11 bc aa 63 c2 3d 4a af 82 ba
       0.012443842 -0.008873932 0.09491666 -0.0009970453
000200 1f b9 15 be d3 7d 11 3d 6d 67 20 bd 1c 03 36 bd
       -0.146214 0.035520386 -0.039161135 -0.04443656
000210 0b 2b 06 3d e4 ae d1 bd 14 8c 5c be fa ca bd 3c
       0.032755893 -0.10238436 -0.2153781 0.023168076
000220 62 09 46 bc f5 61 13 be ee c2 f5 3c 05 15 1d be
       -0.012087198 -0.14392836 0.030000176 -0.1534005
000230 c7 ef 2e 3d bc f4 c9 3d 51 56 6e 3d 49 cf c7 bd
       0.04270914 0.098611325 0.058187786 -0.097563334
000240 9e 5e 0c be d9 dc e2 3c 78 0c 17 be 14 07 84 bc
       -0.13707969 0.027693199 -0.1475085 -0.016116656
000250 c2 00 85 bd 41 40 fc bd 46 f1 3f 3d 50 b1 f4 bd
       -0.06494285 -0.12316943 0.046860956 -0.11947882
000260 da 11 52 3d 08 d5 a8 3d 5a dc 64 3c 81 f7 1d 3d
       0.051286556 0.082437575 0.0139685515 0.038566116
000270 1b 6a f0 bc 8c e5 2b bd d2 bb 18 bc e3 ac 8a 3c
       -0.02934747 -0.04196696 -0.009322124 0.016928142
000280 1f 96 a9 bd b3 99 01 be 4b 26 3e bc 47 d0 34 3d
       -0.082805865 -0.12656288 -0.011605809 0.04414394
000290 04 f8 7f 3b 14 6d 04 be 17 86 0d be e4 a8 05 bd
       0.003905774 -0.12932235 -0.13820682 -0.03263177
0002a0 82 b6 1d be ba 44 ab 3b c2 e7 ae 3b 21 00 af 3d
       -0.15401652 0.0052266987 0.0053376863 0.085449465
0002b0 45 87 9d 3d 12 06 10 bc a1 0c 0d be 86 97 4b be
       0.07691816 -0.00879051 -0.13774349 -0.1988202
0002c0 b6 7a d1 bd 29 a6 3a be 00 a2 33 3c bc 1e b7 3d
       -0.102284834 -0.18227448 0.010963917 0.08941409
0002d0 22 67 54 be b7 9c 08 3d 26 bb 08 be 65 02 c0 3d
       -0.20742467 0.03335258 -0.13352641 0.09375457
0002e0 cf 35 38 be e0 36 c1 3d d6 1e 35 be 2d 6c 43 be
       -0.17989276 0.09434295 -0.17687544 -0.19084235
0002f0 05 fe 8c 3b 80 1b c0 3d 32 73 9b bc 90 01 5c bd
       0.0043027424 0.09380245 -0.018975828 -0.053712428
000300 8f e9 8a 3d 00 fe 36 3d 5e 86 04 3d ea ff 29 3d
       0.06782829 0.044675827 0.032354705 0.041503824
000310 1e fd 2e be 7b 5b f8 bd 44 67 1f bd b7 6d 95 bd
       -0.17088744 -0.121268235 -0.03891684 -0.07296317
000320 ef 02 11 be d1 50 8b bd 05 c5 cf 3c 14 69 9b bd
       -0.14161275 -0.06802524 0.0253625 -0.075884014
000330 22 b6 14 bd 12 cd 46 be 3b cf c8 bd fe 4f 64 be
       -0.036306508 -0.19414166 -0.09805151 -0.2229614
000340 f7 34 bd 3d b9 58 14 3b ec 76 c4 bb 8a 8c f6 bd
       0.09238618 0.002263589 -0.005995622 -0.120385244
000350 e4 ca 9c bc 92 95 93 bd 3d e7 b8 bd 4a 28 4f 3e
       -0.019139715 -0.07206263 -0.0902848 0.20230213
000360 d0 e4 d5 bd f6 b2 92 bd 56 85 3e 3d de f7 0e be
       -0.10444033 -0.0716304 0.046513878 -0.13961741
000370 59 6f dc bd 73 f4 31 bd be dd 43 be 2e a3 4b 3d
       -0.107634254 -0.043446016 -0.19127557 0.049716167
000380 29 d7 a4 3b 3e 35 d1 3d 2e 1f 34 3e 93 39 29 be
       0.005030532 0.10215233 0.17590019 -0.16525869
000390 44 29 27 3e 70 c5 3c be 40 c7 e1 3d 5e ad 3c 3d
       0.16324335 -0.18434691 0.11024332 0.046063773
0003a0 91 a6 4d 3d f9 20 99 bd c9 18 b5 3d b3 0c b7 bc
       0.05020768 -0.07476992 0.08842618 -0.022344923
0003b0 ea 59 81 bd 76 3c 45 be 62 6e d9 bd 02 3e 9f bd
       -0.06315978 -0.19261345 -0.10616757 -0.07775499
0003c0 97 ef 35 be a4 1c fd bd 3e d9 3a be 2e df 21 be
       -0.17767178 -0.123589784 -0.18246934 -0.15807793
0003d0 9f f2 70 3d cc df dd bd bf 5d aa 3c 47 85 7a bd
       0.05882513 -0.108337015 0.020796655 -0.06116226
0003e0 5f 8d d9 bd 9a f0 5e bd da 62 43 be 47 10 6d 3c
       -0.106226675 -0.054428674 -0.19080678 0.014469213
0003f0 d4 1c f4 bd 73 bd 7d 3d 85 e6 f7 bd 4e 4a 89 3d
       -0.11919561 0.06194825 -0.12104515 0.067036256

bias f4 [10]
000000 18 b8 13 be c3 ce e9 3d bc f2 5c be c6 3e 0f be
       -0.14425695 0.1141639 -0.21576971 -0.1398879
000010 95 a5 c3 bd f6 67 12 be 31 60 eb 3c 5e 7c 70 bd
       -0.09553067 -0.1429747 0.028732391 -0.058712356
000020 5d cc 80 bd 12 4c d7 bd
       -0.06288979 -0.10512556

weight f4 [2, 10]
000000 94 bf 7f be 5b ef 35 3e 19 ef 1b 3e 4a dc 8d 3e
       -0.24975425 0.17767088 0.15227927 0.2770713
000010 8d 1c 13 3e 16 34 0c 3e 28 2e 14 be f2 2d 3c 3d
       0.1436636 0.13691744 -0.14470732 0.045942254
000020 56 66 a5 bd 86 bc 50 be f4 8f 12 be 2a 98 b7 3d
       -0.0807616 -0.20384416 -0.14312726 0.0896457
000030 00 2e 6d bd b1 df d4 bb 69 f0 34 be 2b 81 71 3d
       -0.057905197 -0.0064963927 -0.17669834 0.058961075
000040 76 4c 63 be b4 74 ee 3b 9f 27 0d be a5 21 75 3d
       -0.22197136 0.0072770957 -0.13784645 0.05984654

bias f4 [2]
000000 14 5a 9e 3e 27 0f 37 3c
       0.309281 0.011173046
