models/model (20, 10, 3) front=True epoch=20 batch_size=71289 lr=0.01.pt (torch, 44495 bytes, 8 tensors)

weight f4 [20, 500]
0	0x3c60ccdc	0.013720717
1	0xbc8f679d	-0.017505461
2	0xbc4e9aba	-0.012610132
3	0x3cf1b54e	0.029505398
4	0xbd137db6	-0.03600856
5	0xbceb3849	-0.028713362
6	0xbc7cc41f	-0.015427618
7	0xbca456ae	-0.020060863
8	0x399dce1b	0.00030098934
9	0x3d02f3a6	0.031970643
10	0xbcb3861b	-0.021914532
11	0xbc28acdb	-0.010295118
12	0x3d347c78	0.044064015
13	0xbce207a4	-0.027591534
14	0xbcd2c85c	-0.025730304
15	0x3bc8f83c	0.0061331075
16	0xbcaac846	-0.020847451
17	0xbd26393a	-0.04058192
18	0x3c734b4f	0.014849498
19	0xbc882ab3	-0.016621923
20	0x3b976851	0.00462059
21	0x3d00cad4	0.031443432
22	0xbd1d4b8c	-0.038402125
23	0x3c824154	0.015900292
24	0xbbd858a7	-0.006602365
25	0x3d0470d5	0.032334168
26	0xbd0d5202	-0.034502037
27	0x3d2a9d87	0.041654136
28	0xbcc6f921	-0.024288716
29	0xbb71e638	-0.0036910903
30	0xbcff3ba1	-0.031156363
31	0xbba056a8	-0.0048931427
32	0xbaf865ba	-0.0018951215
33	0x3c9d7cc0	0.019224524
34	0x3c1617d9	0.009160959
35	0xbc55c7eb	-0.013048152
36	0x3cce23dd	0.025163585
37	0xbbbcb857	-0.0057592797
38	0x3ce372d0	0.027764708
39	0xbcf73147	-0.030174864
40	0xbbdd4510	-0.0067526177
41	0xbd1bdde3	-0.038053405
42	0xbd261ed2	-0.040556736
43	0xbb0b1f2a	-0.0021228292
44	0x3d3135e2	0.043264277
45	0xbd21dcb9	-0.03951714
46	0x3d0762ee	0.03305333
47	0x3c17b574	0.00925957
48	0xbca1f130	-0.019768327
49	0x3ceab16c	0.028649054
50	0x3a5cdd32	0.00084252947
51	0x3b8e983e	0.004351645
52	0xbca79ad3	-0.020459568
53	0xbc870072	-0.016479705
54	0x3d013cb4	0.03155203
55	0x3c656cb8	0.014002971
56	0x3ca338c7	0.019924534
57	0xbc8eae22	-0.017417017
58	0xbc0ea1e7	-0.008705593
59	0x3ae7db48	0.0017689252
60	0xbc9a2bc7	-0.018819703
61	0x3bf97d2f	0.0076138
62	0xbc04c5b8	-0.00810378
63	0xbca97b3a	-0.020688642
64	0xbb9546b0	-0.0045555457
65	0xbc41df74	-0.0118330605
66	0xbccef3c9	-0.02526273
67	0x3caa908a	0.020820875
68	0xbc3edd07	-0.011649377
69	0xbcd8092d	-0.026371563
70	0xbc891ef7	-0.016738398
71	0x3c46ef8e	0.012142075
72	0xbba81ed8	-0.00513063
73	0x3a930d60	0.0011219196
74	0x3ceac521	0.028658452
75	0xbbe199c9	-0.0068847877
76	0xbc56eb38	-0.013117604
77	0xbcbd1494	-0.023081101
78	0xbb45a8a1	-0.0030160325
79	0xbbf9736c	-0.0076126363
80	0x3c59a54a	0.013284037
81	0x3d2ef88a	0.042717494
82	0x3c47e0c7	0.012199587
83	0xbc7ed481	-0.015553595
84	0x3d1179ac	0.035516426
85	0x3d2d684b	0.04233579
86	0x3d1ba22f	0.037996467
87	0xbc61f7b9	-0.013791972
88	0xbcf49e99	-0.029860782
89	0x3cfeed33	0.031118965
90	0x3d3044a1	0.0430342
91	0x3d1b3538	0.03789255
92	0x3d007bcf	0.031368073
93	0x3ca67d69	0.020323472
94	0x3cb8b7de	0.022548612
95	0x3c7df38e	0.0154999625
96	0x394d758c	0.00019594113
97	0x3c02e726	0.00798968
98	0x3d2bd28a	0.041948833
99	0xbb8ad7b7	-0.004237141
100	0x3d1f57b5	0.038902003
101	0x3c04175f	0.008062213
102	0x3cd71ffa	0.026260365
103	0x3bfc8b6f	0.0077070515
104	0xbc26221b	-0.010139967
105	0xbd274075	-0.040832955
106	0x3cf99377	0.030465825
107	0xbcc61d7d	-0.024183983
108	0x3b91693a	0.004437593
109	0x3c88aba7	0.016683413
110	0x3ca75f95	0.02043132
111	0xbccfa837	-0.025348766
112	0x3d3175cf	0.04332524
113	0x3d375dc7	0.044767167
114	0x3cdd3775	0.027003983
115	0x3c459fc0	0.012062013
116	0x3cad7936	0.021175962
117	0xbc6f1dba	-0.01459449
118	0xbd060f49	-0.03272942
119	0xbc87df73	-0.016586041
120	0x3d159a7f	0.036524292
121	0xbd035ff3	-0.032073926
122	0xbd0f29b1	-0.03495187
123	0xbc0f3218	-0.008739971
124	0x3cf8b1ae	0.030358162
125	0x3d00e852	0.031471558
126	0x3cf7a3b5	0.030229429
127	0x3b0403b7	0.0020143816
128	0x3bc980d8	0.0061493926
129	0xbcabc4b6	-0.020967823
130	0x3d26701b	0.040634256
131	0x3c761ee8	0.015022017
132	0xbd1b0093	-0.037842344
133	0x3cca03a3	0.024659937
134	0x3c98d221	0.018654885
135	0xbc4202b1	-0.011841462
136	0xbc117a9b	-0.008879329
137	0xbb305197	-0.00269041
138	0xbba22e27	-0.0049493494
139	0x3c1f9944	0.009741131
140	0xbc0e4253	-0.008682805
141	0xbc99d1b0	-0.018776745
142	0xbc59cbbd	-0.013293204
143	0x3c40478c	0.011735808
144	0x3d2f3c31	0.042782012
145	0x3d2e08d9	0.042488907
146	0xbc81e861	-0.015857877
147	0xbc5c5666	-0.013448333
148	0x3d2c7185	0.04210045
149	0xbd28540f	-0.04109579
150	0x3c2feccf	0.010737612
151	0xbc9ec8c6	-0.019382846
152	0xbc08896f	-0.008333548
153	0x3ccafd7a	0.02477907
154	0xbbbe71f5	-0.0058119246
155	0x3ba55f29	0.0050467444
156	0x3ca5e2a0	0.020249665
157	0xbd05d821	-0.03267682
158	0x3ce018c1	0.027355554
159	0x3ca3d415	0.01999859
160	0xbcc834dd	-0.02443927
161	0xbbd79bd5	-0.006579856
162	0xbd08a2bd	-0.033358324
163	0x3d4647a4	0.048408166
164	0x3d1ac007	0.037780788
165	0x3d220c72	0.03956265
166	0x3ad04aa5	0.0015891386
167	0x3d2795d7	0.040914383
168	0x3ca76002	0.020431522
169	0xbcd5bcdc	-0.026091032
170	0x3d1b40cf	0.037903603
171	0xbcc97c3d	-0.024595374
172	0xbc560682	-0.013063075
173	0x3c378c60	0.011202902
174	0x3b411ace	0.002946544
175	0x3d07e602	0.033178337
176	0x3cd8a02b	0.026443562
177	0x3d40da13	0.04708297
178	0x3d43db31	0.04781646
179	0xbce57eba	-0.02801453
180	0xbd01142f	-0.03151339
181	0x3d0a334e	0.033740334
182	0xbd27e2da	-0.040987827
183	0xbb86bf27	-0.0041121426
184	0xbd1b4433	-0.037906837
185	0xbc42907d	-0.011875269
186	0x3cef0a49	0.029179709
187	0x3d07ed64	0.033185378
188	0xbd03243a	-0.03201697
189	0xbd20efb7	-0.03929111
190	0x3c465551	0.012105302
191	0xbd234b68	-0.039866835
192	0xbc7e9794	-0.015539069
193	0xbce8c47c	-0.028414004
194	0x3c273e42	0.0102077145
195	0xbd3070b3	-0.04307623
196	0xbcdf83a6	-0.027284455
197	0xbce69e1f	-0.02815157
198	0x3cc87d9c	0.024473958
199	0x3c9b811d	0.018982464
200	0xbc6f1a3d	-0.014593658
201	0xbcdbb685	-0.02682043
202	0xbcb65500	-0.022257328
203	0x3d13cc98	0.036083788
204	0x3bb9db30	0.005671881
205	0xbc8e6f11	-0.017386945
206	0x3c956437	0.018236263
207	0x3c0db9cb	0.0086502535
208	0xbc2da817	-0.010599158
209	0x3c9a9fff	0.01887512
210	0x3caae10e	0.020859268
211	0xbcc387de	-0.023868497
212	0xbcb8511e	-0.022499617
213	0x3d333367	0.043750193
214	0xbd04c341	-0.03241277
215	0xbca39441	-0.019968154
216	0x3cbba562	0.02290601
217	0xbd269630	-0.040670574
218	0xbcb839d4	-0.022488512
219	0xbcc55dd6	-0.024092596
220	0x3c94ea21	0.018178048
221	0xbc638ef2	-0.013889061
222	0x3d18484b	0.03717832
223	0xbb34cf64	-0.0027589435
224	0xbc80ba21	-0.015713753
225	0xbc432c2b	-0.011912386
226	0x3c2ceeb6	0.01055496
227	0xbc5a7139	-0.013332658
228	0xbd119042	-0.035537966
229	0x3d09c2c3	0.033633005
230	0x3d192bab	0.03739516
231	0xbcda201f	-0.026626645
232	0x3ccadf71	0.024764748
233	0xbcae39c7	-0.021267785
234	0xbcd99663	-0.026560968
235	0x3d18b994	0.037286356
236	0xbd356e6d	-0.044294763
237	0x3c8e1be9	0.017347293
238	0x3c5a8f2d	0.0133398
239	0xbcc00ce9	-0.023443656
240	0x3c80d292	0.015725408
241	0x3d1128e0	0.035439372
242	0xbd18b849	-0.037285123
243	0x3c782a40	0.015146792
244	0x3cd7be42	0.02633584
245	0x3b56bce4	0.0032766396
246	0xbb0931c9	-0.0020934215
247	0x3d103e48	0.035215646
248	0xbd17cad9	-0.037058685
249	0xbb836dd1	-0.004010894
250	0x3cfd6b4a	0.030934948
251	0x3c6de39c	0.014519598
252	0x3d1521e1	0.036409263
253	0xbc511f47	-0.012763805
254	0xbd095eb4	-0.03353758
255	0xbd33a4b2	-0.043858238

bias f4 [20]
0	0xbe126583	-0.14296536
1	0xbd1055d6	-0.03523811
2	0xbd39bf3a	-0.045348383
3	0xbd185c4b	-0.037197392
4	0xbc748a84	-0.014925603
5	0xbce02606	-0.027361881
6	0xbac2b8f9	-0.0014856152
7	0xbdeab8b1	-0.11461008
8	0xbd589715	-0.052878458
9	0xbd3f5380	-0.04671049
10	0x3da7e1d8	0.08197373
11	0xbd8f9008	-0.07009894
12	0xbbde60fe	-0.0067864647
13	0x3d3e6a90	0.046488345
14	0xbbdf3aea	-0.006812443
15	0xbd64a459	-0.055820797
16	0xbe1d81ba	-0.15381518
17	0xbdaf784a	-0.08567865
18	0x3a0c0e65	0.0005342721
19	0x3bd6184f	0.0065336595

weight f4 [10, 20]
0	0xbd040a28	-0.03223625
1	0xbe87af33	-0.26500854
2	0xbdddadb9	-0.108241506
3	0x3dec3bbc	0.11534831
4	0xbde54a9c	-0.11195871
5	0x3d048c6b	0.032360476
6	0xbe63a8cf	-0.22232364
7	0xbe0308c6	-0.12796316
8	0xbd968009	-0.073486395
9	0xbd7395ee	-0.059469156
10	0xbe8e6742	-0.27813154
11	0xbd5e3827	-0.05425277
12	0xbd120314	-0.035647467
13	0x3e7095bb	0.23494618
14	0xbdc60c15	-0.09670273
15	0x3dd74f31	0.105131514
16	0xbdc2e10f	-0.09515583
17	0x3c3d0214	0.01153614
18	0x3d9789e2	0.07399346
19	0xbdd59450	-0.10428679
20	0x3db989cf	0.09059488
21	0x3e60363f	0.21895693
22	0x3da440c9	0.08020169
23	0xbe308263	-0.17237239
24	0x3e5c199e	0.21494147
25	0x3e662d15	0.22478135
26	0x3dda2952	0.106524125
27	0x3da04bb4	0.07826939
28	0x3d25cd64	0.04047908
29	0xbd12e851	-0.035866085
30	0xbdba5957	-0.090990715
31	0xbd35e6ee	-0.044409685
32	0x3de659e8	0.11247617
33	0x3ba160db	0.004924876
34	0xbe179e08	-0.14806378
35	0xbd78ef3a	-0.06077502
36	0x3db8aa87	0.090169005
37	0x3e3abf6c	0.18237084
38	0x3eab6dac	0.3348211
39	0x3e7d9985	0.24765594
40	0xbd4ca85c	-0.049965248
41	0x3ea2d2a8	0.31801343
42	0x3e4a2330	0.19739985
43	0x3e2d6e02	0.16936496
44	0x3e4d860b	0.20070665
45	0x3c8771bf	0.01653373
46	0x3d76efd0	0.060287297
47	0xbdce0258	-0.10059041
48	0x3cabfb76	0.02099393
49	0xbd970a36	-0.073749945
50	0x3e7f76ce	0.24947664
51	0xbd836841	-0.06416369
52	0x3e916655	0.28398386
53	0x3d29e672	0.041479535
54	0x3e85d7fe	0.2614135
55	0x3ca2d2a3	0.01987583
56	0x3e82c6ec	0.2554239
57	0xbdf2e184	-0.1185942
58	0x3e7dffc4	0.24804598
59	0x3e3ea14f	0.18616222
60	0xbd654ebf	-0.0559833
61	0x3d1f3385	0.038867492
62	0xbe85cd7c	-0.26133335
63	0xbd9eda84	-0.07756522
64	0xbcff2ab1	-0.031148287
65	0x3dd6ffa5	0.10497979
66	0x3d92cf51	0.07168449
67	0x3e2a7d30	0.16649318
68	0xbe7792b4	-0.24177057
69	0x3d1e073f	0.03858113
70	0xbd13e8e0	-0.03611076
71	0xbe849d5a	-0.259013
72	0xbda32398	-0.07965773
73	0xbe2f4443	-0.17115884
74	0x3dd94331	0.10608519
75	0xbe338120	-0.17529726
76	0x3e01898b	0.12650125
77	0xbe4be965	-0.19913252
78	0xbe26a0b1	-0.16272236
79	0xbd9e282c	-0.07722506
80	0x3dc579dc	0.096423835
81	0xbd50411e	-0.05084335
82	0x3c3cfcee	0.0115349125
83	0xbe9464ed	-0.2898325
84	0x3e082857	0.13296638
85	0xbe1aaf86	-0.1510602
86	0x3e0363cd	0.1283104
87	0x3b692f90	0.0035581328
88	0x3d5da15f	0.054108974
89	0xbe4af82e	-0.19821236
90	0xbe8d9009	-0.27648953
91	0x3e1d15a3	0.15340285
92	0xbba44b78	-0.0050138794
93	0xbe4d1611	-0.20027949
94	0xbd9ff3cf	-0.07810175
95	0xbd817cce	-0.06322633
96	0xbe8803e3	-0.26565465
97	0xbe8007d2	-0.25005966
98	0x3dbaea5b	0.09126731
99	0xbdbeb369	-0.093115635
100	0xbd881a8a	-0.06645687
101	0x3d1c2721	0.038123254
102	0x3ca144be	0.0196861
103	0xbda2afc1	-0.07943679
104	0x3ce64fa4	0.028114147
105	0x3e9d1dce	0.30686802
106	0x3d4fecee	0.050763063
107	0xbd0315ca	-0.0320032
108	0xbdda5ef2	-0.10662641
109	0xbd0d95e1	-0.034566764
110	0x3dcdbe2a	0.100460365
111	0xbd628499	-0.055302236
112	0xbd19fa96	-0.037592493
113	0x3dc2bb1f	0.09508347
114	0x3e2bff1b	0.16796534
115	0xbcf1a280	-0.029496431
116	0x3e2f0b02	0.17094043
117	0x3e2dce10	0.16973138
118	0xbd42dae8	-0.047572047
119	0xbe8103d0	-0.2519822
120	0xbcaa0e12	-0.020758662
121	0x3cf710f2	0.030159447
122	0x3e163211	0.14667536
123	0xbe5b7101	-0.21429826
124	0xbe43dc1f	-0.19126938
125	0xbe598028	-0.21240294
126	0xbe8feba4	-0.28109467
127	0xbdeead63	-0.11654165
128	0x3c6b35c0	0.014356077
129	0x3dbb198b	0.09135731
130	0xbdf8f627	-0.12156325
131	0x3e0e9a77	0.13926111
132	0xbd39f173	-0.04539628
133	0x3d872327	0.06598502
134	0x3d93f01b	0.07223531
135	0x3d95f372	0.07321824
136	0xbc96431e	-0.01834255
137	0xbd0a78d2	-0.03380663
138	0x3dd7b2e5	0.10532168
139	0x3e292012	0.1651614
140	0xbd7e30f6	-0.06205841
141	0xbe0af936	-0.13571629
142	0xbd041e6c	-0.032255575
143	0xbd4a444a	-0.04938153
144	0xbd7f9411	-0.062397067
145	0xbcd0934d	-0.025460863
146	0xbe0e949f	-0.13923882
147	0x3d187d25	0.037228722
148	0x3d117841	0.035515074
149	0x3ddf5e3b	0.10906645
150	0xbe54576b	-0.20736472
151	0xbde6c416	-0.11267869
152	0x3b8d6a70	0.004315667
153	0xbda2a9b7	-0.07942527
154	0x3e0b8cc8	0.13627923
155	0xbd24446b	-0.04010431
156	0xbdd8a34a	-0.1057802
157	0xbdc8dfe3	-0.09808328
158	0xbd6d39b1	-0.057916347
159	0x3dbdf4bb	0.09275194
160	0x3e0816ab	0.13289897
161	0xbc88ad29	-0.016684132
162	0xba9877bc	-0.0011632363
163	0xbe4e41e8	-0.20142329
164	0xbc5d2916	-0.013498565
165	0x3e4534e6	0.1925846
166	0xbd9a42e4	-0.075322896
167	0x3d26b80f	0.040702876
168	0xbd449cb9	-0.048001025
169	0x3d85f800	0.06541443
170	0xbdc1ddf0	-0.09466159
171	0xbe50b9a0	-0.2038331
172	0xbe19cd07	-0.15019618
173	0x3d57665f	0.052587863
174	0xbc9cde74	-0.019149043
175	0xbe89974b	-0.2687324
176	0x3e47edbb	0.1952428
177	0xbc2df100	-0.010616541
178	0xbe7bd959	-0.2459463
179	0xbdff4caa	-0.124657944
180	0x3e3920de	0.18078944
181	0xbe323a24	-0.17404991
182	0xbd40662e	-0.046972446
183	0x3e168cd8	0.14702165
184	0x3e66d80e	0.22543356
185	0x3d85f86f	0.065415256
186	0x3e7552c3	0.23957352
187	0x3dd75998	0.105151355
188	0x3e7d5910	0.24741006
189	0xbd4583b3	-0.0482213
190	0xbdbbf2a4	-0.091771394
191	0xbe1d56c5	-0.15365131
192	0xbd6d9698	-0.058004946
193	0xbe5a563e	-0.21321961
194	0xbde609b1	-0.11232317
195	0xbda2c52b	-0.07947763
196	0x3c2e1992	0.010626214
197	0xbe0ab790	-0.13546586
198	0x3e4f62f5	0.20252593
199	0xbe166acb	-0.14689176

bias f4 [10]
0	0x3e0ba4ac	0.13637036
1	0xbd9a8d49	-0.07546479
2	0x3e852dce	0.2601151
3	0xbda3f8e0	-0.080064535
4	0x3daa31ce	0.08310281
5	0xbc07ae42	-0.008281292
6	0xbe1fa699	-0.15590896
7	0x3d8bac42	0.06819965
8	0xbdeb68b3	-0.11494579
9	0xbdbbe6e1	-0.09174896

weight f4 [3, 10]
0	0xbc8c3130	-0.017113298
1	0xbdcc28dc	-0.09968731
2	0xbe0b363f	-0.13594912
3	0x3bf5e5cd	0.007504201
4	0x3e2490f7	0.16070925
5	0x3b085da5	0.002080777
6	0xbbbcdb30	-0.005763434
7	0x3e87d55b	0.26529965
8	0x3e427c36	0.18992695
9	0xbe9790f1	-0.2960277
10	0xbaa6997a	-0.0012710535
11	0x3d3dc4d0	0.046330273
12	0xbe06e315	-0.13172562
13	0x3d8fd125	0.07022313
14	0x3d261d40	0.04055524
15	0xbe27af1c	-0.16375393
16	0x3e5a9a6b	0.21347968
17	0x3c2591ae	0.0101055335
18	0xbe482ffc	-0.19549555
19	0xbde50fd3	-0.11184659
20	0xbd8bc91b	-0.06825467
21	0xbe3eb2f9	-0.1862296
22	0xbeab5ddd	-0.3347005
23	0x3e0f9764	0.14022595
24	0x3d96b17e	0.07358073
25	0xbe9195f5	-0.2843472
26	0xbd2b2435	-0.041782577
27	0xbe32b916	-0.17453417
28	0x3e3093a4	0.1724382
29	0x3e911db6	0.2834298

bias f4 [3]
0	0x3e1c8899	0.15286483
1	0xbc9e4131	-0.019318195
2	0xbe69259f	-0.22768258

weight f4 [2, 3]
0	0xbe92f43f	-0.2870197
1	0xbe9f21a7	-0.31080362
2	0x3ed81bcf	0.42208716
3	0x3e589ecd	0.21154328
4	0xbe946a52	-0.28987366
5	0xbee28673	-0.44243202

bias f4 [2]
0	0xbe7f1ac3	-0.24912553
1	0xbd9941d8	-0.07483262
