models/model (100, 40, 10) front=True epoch=20 batch_size=71289 lr=0.01.pt (torch, 221775 bytes, 8 tensors)

weight f4 [100, 500]
000000 c3 94 ea bd 5c 61 b7 bd 4f ce 09 bd 86 62 13 bd
       -0.11454155 -0.08954117 -0.033644017 -0.03598263
000010 6e e1 08 bd 3e 30 d1 bc df eb 56 bd 1d 4b 64 bd
       -0.03341811 -0.025535699 -0.052471038 -0.055735696
000020 c8 2d d4 bc f5 69 53 bd b1 e0 dd bd bb ed 2e bd
       -0.025900736 -0.05161472 -0.10833872 -0.042707186
000030 99 78 c4 bd 1f 0f 93 bd 9e 67 e1 bc 69 9d 98 bd
       -0.09593315 -0.071806185 -0.027515229 -0.074518986
000040 5a 4a bb bd 3e 0f 7a bd d1 fd a2 bd 7b c8 d8 bd
       -0.09145041 -0.061049692 -0.07958568 -0.105851136
000050 5d 4f 0a bd f5 bf a5 bd b8 12 e9 bd b2 68 e8 bc
       -0.033767093 -0.080932535 -0.113805234 -0.028370235
000060 72 45 53 bd b7 b6 19 bd f1 4b 14 bd c7 c3 6b bd
       -0.0515799 -0.037527766 -0.036205236 -0.057559755
000070 c8 14 62 bd de 8a 6c bd 01 25 a2 bd 47 48 09 bd
       -0.0551956 -0.05774962 -0.07917214 -0.033516195
000080 2e e2 c3 bd 6c 38 c9 bd bb 93 27 bd f4 74 65 bd
       -0.09564625 -0.09825215 -0.04091237 -0.05601974
000090 8b 90 1a bd 12 ff 0d bd 88 80 07 bd 38 31 11 bd
       -0.037735503 -0.034667082 -0.03308156 -0.03544733
0000a0 49 2f e2 bd 4a d8 a8 bd d6 b4 dd bc 2a a0 bd bd
       -0.11044175 -0.08244379 -0.027063768 -0.092590645
0000b0 e8 97 c3 bd 11 37 92 bd a8 75 9e bd 2f d4 b0 bd
       -0.09550458 -0.07139409 -0.07737285 -0.08634221
0000c0 ac 30 56 bd f1 cf d5 bc a6 0f b0 bd 2e d1 c6 bd
       -0.05229251 -0.02610013 -0.08596735 -0.097078666
0000d0 28 e9 64 bd f7 c7 dd bc 41 d6 ae bd 8b 1b 79 bd
       -0.055886418 -0.02707289 -0.085369594 -0.060817283
0000e0 1e c3 c4 bd cf 37 c5 bd 18 cd c4 bd 0e 7d 73 bd
       -0.09607528 -0.09629785 -0.09609431 -0.059445433
0000f0 d4 0d 37 bd 3d f5 b5 bd ec 91 d6 bd 49 c3 5c bd
       -0.044690922 -0.08884666 -0.10477051 -0.053897176
000100 63 4d a1 bd 1f 42 a3 bd 33 61 92 bd 89 1c a1 bd
       -0.078760885 -0.07971596 -0.071474455 -0.07866771
000110 88 d8 b4 bd 82 17 c9 bd db d9 76 bd 90 7b c9 bd
       -0.088303626 -0.09818937 -0.060266357 -0.09838021
000120 8a 1f b3 bd 6a 31 b6 bd 4f 2f bd bd 95 e0 02 bd
       -0.0874625 -0.08896144 -0.09237539 -0.03195246
000130 88 b0 29 bd e9 dc 62 bd b3 49 97 bd 6f 36 93 bd
       -0.04142812 -0.055386458 -0.07387104 -0.07188117
000140 45 d4 2b bd ab d8 97 bd 7f 92 b0 bd fe d2 a6 bd
       -0.041950483 -0.07414373 -0.08621692 -0.08145712
000150 30 7d 58 bd 90 43 97 bd 79 52 8e bd 89 b0 9a bd
       -0.052853763 -0.073859334 -0.06949324 -0.07553203
000160 7d 39 b3 bd 08 50 da bd c7 b1 bf bd a0 20 98 bd
       -0.087511994 -0.10659796 -0.0936008 -0.07428098
000170 4b 57 6a bd c4 59 33 bd 58 9d 93 bd 01 0d 13 bd
       -0.057212155 -0.04378678 -0.07207745 -0.035901073
000180 d4 58 d8 bd 10 6b 31 bd 21 fd 5d bd c0 3e 7b bd
       -0.105638176 -0.043314993 -0.05419648 -0.06133914
000190 ef f7 8f bd ea 62 d0 bd 8d f9 de bd fe 3a c3 bd
       -0.070297115 -0.10175116 -0.10887442 -0.09532736
0001a0 e1 0c cf bd 56 08 cb bd 2e 57 90 bd e3 c3 d2 bd
       -0.10109878 -0.09913699 -0.07047878 -0.10291269
0001b0 eb c8 09 bd 44 72 a8 bd a3 95 aa bd 45 e7 91 bd
       -0.033638876 -0.082249194 -0.08329322 -0.07124189
0001c0 52 cc b8 bd 3e 96 15 bd 22 25 86 bd b9 42 3b bd
       -0.09023346 -0.036520235 -0.06550051 -0.04571793
0001d0 d5 ec 96 bd 40 33 02 bd c3 47 f7 bc c5 62 86 bd
       -0.07369391 -0.031787157 -0.030185586 -0.065618075
0001e0 52 32 ed bc 97 76 1f bd 52 9b 11 bd 11 6a 4f bd
       -0.028954659 -0.038931455 -0.035548516 -0.050638262
0001f0 44 9f a7 bd 32 33 d4 bd da d0 a0 bd 4b 70 93 bd
       -0.081846744 -0.10361327 -0.07852335 -0.071991526
000200 b6 22 1f bd 76 b8 dd bc ff 24 ab bd de dc e5 bd
       -0.038851462 -0.027065497 -0.08356666 -0.11223768
000210 5b 1e 1b bd 8b 43 76 bd c4 69 b4 bd d2 fd bb bd
       -0.037870746 -0.060123008 -0.08809236 -0.09179272
000220 8c 02 68 bd 0c aa 1b bd 0e b2 4c bd c0 21 0e bd
       -0.056643054 -0.038003966 -0.049974494 -0.034700155
000230 89 85 ba bd f2 9b e8 bd f6 32 a5 bd 73 2b 99 bd
       -0.09107501 -0.11357869 -0.08066361 -0.074789904
000240 fb ee 47 bd 7e c6 b2 bd 06 6d 53 bd 35 8e 37 bd
       -0.048811894 -0.08729266 -0.051617645 -0.044813354
000250 0d cb d3 bd 30 55 b1 bd f2 b7 ca bd f8 5e 52 bd
       -0.10341463 -0.08658826 -0.09898366 -0.0513601
000260 a7 aa 21 bd e0 61 c2 bd 13 93 35 bd 2c 7f 86 bd
       -0.039469387 -0.094913244 -0.044329714 -0.06567225
000270 d8 82 bf bd 8c e4 d2 bd eb a1 ec bc cb 1d de bd
       -0.09351128 -0.10297498 -0.028885802 -0.10845526
000280 d3 82 2b bd b7 75 f3 bc 9c 17 44 bd 3f 49 45 bd
       -0.04187281 -0.029719217 -0.04787408 -0.048165556
000290 19 e6 85 bd 39 88 4e bd a2 97 bf bd 82 3f 3f bd
       -0.06538028 -0.05042288 -0.093550935 -0.046691425
0002a0 b2 86 a5 bd 99 fe 97 bd 13 27 c5 bd da d3 82 bd
       -0.08082332 -0.074216075 -0.096265934 -0.06388064
0002b0 07 1d 7c bd b0 33 2e bd fe c2 de bd 7f b9 00 bd
       -0.06155112 -0.04252976 -0.108770356 -0.031426903
0002c0 49 4c 44 bd fd 3b d9 bd 45 e9 bf bd f1 f5 e8 bd
       -0.047924314 -0.10607145 -0.093706645 -0.113750346
0002d0 8c b9 45 bd fc ba e9 bd c7 b0 b9 bd c7 dc dc bd
       -0.048272654 -0.114126176 -0.09066921 -0.107842974
0002e0 e2 7d e1 bc 21 e1 a9 bd 34 a7 99 bd 4a 28 c4 bd
       -0.027525846 -0.08294893 -0.075025946 -0.09577997
0002f0 40 c4 9a bd 7f a7 c5 bd 37 14 87 bd 34 37 94 bd
       -0.07556963 -0.09651088 -0.065956526 -0.07237092
000300 83 3d 30 bd f4 55 71 bd b0 fe e1 bd 64 28 cb bd
       -0.043027412 -0.058919862 -0.11034906 -0.09919813
000310 e7 c5 d9 bc 40 42 97 bd e6 60 8d bd 05 3e e8 bd
       -0.026583625 -0.07385683 -0.069032475 -0.11339954
000320 6b 3c e9 bd 64 5f d4 bc 73 f2 57 bd 9c bf 55 bd
       -0.11388477 -0.025924392 -0.052721452 -0.052184686
000330 f2 89 53 bd 0b 1a 40 bd 7a 3e ad bd 4b 74 4d bd
       -0.051645227 -0.046899837 -0.08459182 -0.050159734
000340 16 80 d8 bd 75 f4 59 bd f8 d0 10 bd 6a 89 09 bd
       -0.105713055 -0.053211648 -0.035355538 -0.033578314
000350 69 2a 05 bd 75 9f d5 bd b7 96 cf bd 67 58 b7 bd
       -0.03251115 -0.10430805 -0.101361685 -0.08952408
000360 db ab e2 bd a6 aa 6d bd 1f 6e 34 bd 84 f7 5b bd
       -0.11067935 -0.05802407 -0.044050332 -0.053702846
000370 f2 3b d1 bd 72 06 ea bd 52 5b 6f bd 5e 75 9f bd
       -0.10216512 -0.114270106 -0.0584367 -0.07786058
000380 c4 6c 84 bd 8b 3f 6e bd 5e 3b 85 bd 39 72 b2 bd
       -0.06466058 -0.058166068 -0.06505464 -0.087131925
000390 30 13 a5 bd 01 a6 41 bd 58 1a 13 bd 16 8e d6 bd
       -0.080603 -0.047277454 -0.035913795 -0.104763195
0003a0 52 09 a8 bd 24 97 57 bd b3 be e6 bd 19 18 64 bd
       -0.08204903 -0.052634373 -0.11266842 -0.055687044
0003b0 a7 34 6c bd 1f 27 9d bd 9d 31 6f bd cb 7f a6 bd
       -0.0576674 -0.076734774 -0.058396924 -0.08129843
0003c0 c2 b2 b4 bd 0d ff 8e bd 13 a5 6f bd 0d a3 1e bd
       -0.08823158 -0.06982241 -0.058507036 -0.038729716
0003d0 c9 2b c2 bd 3b 0f 96 bd eb f9 81 bd e7 f1 6a bd
       -0.094810076 -0.07327124 -0.06346496 -0.057359602
0003e0 99 63 c2 bd 56 57 a2 bd c8 6d ac bd 2e fe 9b bd
       -0.09491653 -0.07926814 -0.084193766 -0.0761684
0003f0 ce e1 df bd cd db 80 bd cb 43 1a bd 9e d8 34 bd
       -0.10931741 -0.06291924 -0.03766231 -0.044151895

bias f4 [100]
000000 ea ef 37 bd e4 c8 d8 bc 38 56 3c bc 97 ee aa bd
       -0.044906534 -0.02646298 -0.0114951655 -0.08346289
000010 52 70 0d bd 97 2a a9 bd b7 d3 89 bd de 00 ae 3c
       -0.034530945 -0.082600765 -0.067298345 0.021240648
000020 6f 2c 47 3c 92 56 4a bc 85 d2 3a 3d bb bf 6b 3d
       0.01215659 -0.0123497415 0.045610923 0.057555895
000030 26 b0 f9 bc 47 cd 8b 3c d3 99 3e 3d 17 10 97 3d
       -0.030479502 0.017065657 0.046533417 0.07376116
000040 fa 35 8c 3c a3 03 41 bd b7 69 5e 3d 0e d2 14 bc
       0.017115582 -0.04712261 0.054300036 -0.009083284
000050 d2 43 05 bd e3 fa 93 bd 69 a4 7b 3c b1 52 c3 bd
       -0.03253538 -0.07225587 0.015359023 -0.095372565
000060 ec 2b 91 bd 14 21 6a bd 3c 1b 59 bc 03 75 31 ba
       -0.070884556 -0.057160452 -0.013251122 -0.000676945
000070 42 67 74 bd 17 c8 32 bc 1a a8 ea bb 8a 19 cc 3c
       -0.059668787 -0.010911963 -0.0071611525 0.024914522
000080 26 d9 ed 3b a1 1f ab bd 86 06 84 39 87 3f a2 bd
       0.007258552 -0.08355642 0.00025181862 -0.07922273
000090 4e 7e 27 bd fa 5e d4 bc 72 21 6e 3d c4 d7 5c 3c
       -0.040891938 -0.025924195 0.058137365 0.013479177
0000a0 6b 41 69 bd 7f aa 65 bd 9a cd b6 3c 59 a4 c1 bc
       -0.056947153 -0.0560708 0.022314835 -0.023637937
0000b0 c6 3a 98 bd b3 88 58 3d 8d 4a 8e bd 5b 23 77 3d
       -0.07433085 0.05286474 -0.06947813 0.060336452
0000c0 40 73 55 3d e0 47 10 3d e7 dd 7b 3d 4f 5a 0c bd
       0.052111864 0.035224795 0.06149092 -0.034265812
0000d0 75 bc 84 3d c7 e4 bf bd fb fc 6f 3d 12 8b ae 3d
       0.06481258 -0.09369808 0.05859087 0.08522619
0000e0 50 2d 97 bd 70 32 4f bd 8a 02 09 bd db 09 b6 bd
       -0.073816895 -0.05058521 -0.033449687 -0.088885985
0000f0 08 ca 85 bc ff 80 3f bd 3e c3 2b 3d 70 fa 08 3d
       -0.016331688 -0.04675388 0.041934244 0.03344196
000100 3a 1e 5a 3c ab 29 7f 3d 78 30 40 bb 92 50 39 bc
       0.013312871 0.062295597 -0.0029325765 -0.011310713
000110 a2 91 5a 3d ba 35 3a 3d 94 ee 97 bd 13 f6 0b bd
       0.053361543 0.045461394 -0.07418552 -0.03417022
000120 07 86 10 3d 2a 3c d9 3c de af 7c bc 15 9c 6c bd
       0.03528407 0.026517946 -0.015422789 -0.05776604
000130 c9 c0 03 3d 08 0b d8 bc 48 92 27 3c 93 b4 a1 bd
       0.032166276 -0.026372448 0.010227747 -0.0789577
000140 6d c6 8a bd 01 20 bd bd 65 53 d7 bb 59 78 ae bd
       -0.06776128 -0.0923462 -0.0065712207 -0.08519048
000150 5a 9f a9 bd 3d a3 d1 3d e6 6b 18 bb 37 7d 11 3d
       -0.08282347 0.10236213 -0.0023257672 0.035519805
000160 44 c5 30 3d 62 f5 9f bd bf c7 5b 3d bc 85 2e bc
       0.043156877 -0.07810475 0.05365729 -0.010652002
000170 25 9d 2f bd e5 08 93 bd 91 31 fc bc 88 89 bf bd
       -0.042874474 -0.07179431 -0.030785354 -0.09352404
000180 de db b5 bd d6 a3 f2 3c c4 ed c9 bd 52 26 4a bd
       -0.08879827 0.029619139 -0.09859803 -0.04935295

weight f4 [40, 100]
000000 39 de da bd ef ab b1 bd c8 d1 ed bd 69 32 d9 bd
       -0.10686917 -0.08675372 -0.11612278 -0.10605318
000010 af f0 6e 3d 1b fb f1 bd 0c 40 45 b8 40 36 a2 bd
       0.058335003 -0.11815473 -4.702811e-05 -0.079205036
000020 82 10 9a bd 39 c8 a3 bd be 10 ad bd 56 a0 e4 bc
       -0.0752268 -0.07997174 -0.08450459 -0.027908485
000030 d9 fa c1 bd 55 e7 be 3c c2 69 5c bd 4a 41 ff bd
       -0.094716735 0.023303667 -0.053811796 -0.12463625
000040 ba af 5b 3d cb 18 d0 3d 08 f6 ac bd e8 f3 1c 3d
       0.053634383 0.10160979 -0.08445364 0.038318545
000050 ef 02 f5 bd 5e f7 7a bd 99 1d 39 bd 84 71 c0 bc
       -0.1196345 -0.061271064 -0.045194242 -0.023491628
000060 70 28 c9 bd 7f f6 a4 bd 74 cf 30 bc 59 00 47 bc
       -0.09822166 -0.08054828 -0.010791648 -0.012146079
000070 2e 28 0d 3c 78 b0 2e bd 66 e0 27 3d c8 b9 48 3d
       0.008615537 -0.042648762 0.040985487 0.0490053
000080 49 11 22 bd 4e 76 56 bd 0d 15 ff bd a0 57 f6 bd
       -0.039567266 -0.052358918 -0.12455187 -0.12028432
000090 32 3c eb 3c f2 47 d4 bc 04 19 fa bd 8f 61 0c bc
       0.028715227 -0.025913212 -0.122118026 -0.008568182
0000a0 1c a9 c9 bd 4a 7f a1 3c e9 91 54 bd 66 5c c5 bd
       -0.09846708 0.019714016 -0.051896963 -0.09636764
0000b0 5a 65 e6 bd 91 c8 39 3d a3 5d e7 bb 61 fd 0c be
       -0.112498 0.04535729 -0.007060723 -0.13768531
0000c0 c4 40 f7 bd 88 7f cc bd e9 55 25 be 45 50 82 3c
       -0.120729 -0.09985262 -0.16146053 0.015907416
0000d0 8f 36 8a bd 4d 5a bb bb 84 79 06 3d ac de 18 be
       -0.067486875 -0.005717552 0.03283073 -0.14928693
0000e0 5c b0 0b be c0 5b 95 bd 73 ac 80 bd da 10 10 be
       -0.13641495 -0.072928905 -0.06282892 -0.14068928
0000f0 81 7d 51 bd 8d 81 8c 3c 63 6b 4b bd 2f b6 c4 bd
       -0.05114508 0.017151618 -0.04966296 -0.09605061
000100 65 c5 00 be 85 65 66 bd 2b 2d 8e bd d5 1d 32 bd
       -0.125753 -0.05624916 -0.06942209 -0.04348548
000110 68 0e 1b be 0a 79 dd bd 81 e1 70 bd 43 14 07 be
       -0.15142214 -0.10814102 -0.058808807 -0.13191323
000120 83 e4 9c bd 71 f3 1e 3d b8 40 6d bd f6 ca 84 bd
       -0.07660773 0.038806383 -0.05792305 -0.06484024
000130 a0 9f 40 3b 06 3f 48 3d ea 73 fc bd 24 fb 26 3d
       0.002939202 0.04888823 -0.12326796 0.04076685
000140 d8 b4 b2 bc 09 18 97 bb 21 b5 88 bd 8e 68 9e bd
       -0.021814749 -0.0046110195 -0.066751726 -0.07734786
000150 04 1c 20 3d 39 43 64 3c 42 b7 11 3b 06 eb 60 bc
       0.039089218 0.013932043 0.0022234474 -0.013727909
000160 da 68 25 3d ba 2e 35 3d 01 0f 46 3c 0b 14 93 bd
       0.040383197 0.044234015 0.012088538 -0.07181557
000170 ba 3d 37 3d 01 d9 64 bd ad f4 c5 bd f5 97 51 3d
       0.0447366 -0.055871014 -0.09665809 0.05117031
000180 b3 93 80 bd c1 fd bc 3c 8f 8d 59 3c 2d 5b d2 bd
       -0.062781714 0.023070218 0.013278379 -0.10271297
000190 dd bf 6f 3c ea 20 12 bd 25 2c 03 3d 92 cb 37 bd
       0.014633146 -0.03567592 0.03202452 -0.044871874
0001a0 be e0 0d bd ab b2 aa bc 67 a1 90 3c 08 82 63 bd
       -0.03463816 -0.020837149 0.017655088 -0.05554393
0001b0 2c d2 28 bd aa ae 4a bd 98 d0 76 bd 36 5a 9e bd
       -0.04121606 -0.04948298 -0.060257524 -0.0773205
0001c0 cb 0d 33 3d b7 f4 9d bc b4 f6 7c bd ee a4 06 be
       0.043714326 -0.019281728 -0.061758712 -0.13148853
0001d0 95 1d 18 be 40 34 00 3e 7e 4f 55 bb bd 94 c4 bd
       -0.14855035 0.12519932 -0.0032548602 -0.09598682
0001e0 7c 30 2e bd 5c aa 07 3d 19 24 ef bd 1c 56 b8 bb
       -0.042526707 0.03312145 -0.11676807 -0.0056254994
0001f0 90 8a d2 bd dc 66 91 bd 88 58 9f bc a7 1c 0e bd
       -0.10280335 -0.07099697 -0.019451395 -0.034695294
000200 32 df c5 bd c2 80 6c bc d6 53 f8 3c e6 73 04 bd
       -0.09661712 -0.014434995 0.030313414 -0.032337092
000210 8b af 13 bc b4 34 5e 3b 3c c1 d8 bd d7 f3 0e be
       -0.009014021 0.0033905925 -0.105837315 -0.13960205
000220 fb 65 4d bd 95 d9 23 bd 11 c1 be bd 1b de 8a bd
       -0.050146084 -0.040002424 -0.09314168 -0.067806445
000230 08 1a a6 3c 16 a9 b5 bc 92 9c dc bd 60 e5 ed 3c
       0.020276085 -0.022175353 -0.10772051 0.029040039
000240 64 b3 30 3d a1 1b 00 bd 59 4f 28 3d 5c ae 07 be
       0.04313983 -0.03127635 0.041091297 -0.13250107
000250 d9 c9 a1 bd d5 72 f1 bd 77 7c 70 bd 18 70 c6 bc
       -0.078998275 -0.117894806 -0.05871245 -0.024223372
000260 45 87 e3 bd b0 bc 65 3d b8 e5 0a be 6e 38 0a bd
       -0.11109785 0.05608815 -0.13564193 -0.03374522
000270 e2 df 29 bd a1 d0 4c 3d 82 af b1 bc b8 80 5e 3c
       -0.041473277 0.05000365 -0.021690134 0.013580494
000280 66 67 01 be b2 cf 06 3d fa b3 45 bd 5c aa 9f bd
       -0.126371 0.032912917 -0.048267342 -0.07796165
000290 a4 8f f9 bc 76 69 ce bc ae 4f 95 bd 7e 70 d3 3c
       -0.030464001 -0.025196772 -0.07290588 0.025810476
0002a0 8c 47 a4 3c cc af 2b 3d 06 c9 16 3d 6b 5f 46 bd
       0.020053647 0.0419157 0.036812805 -0.04843084
0002b0 f8 4f 71 bd 01 2c 87 3d ce 5e e1 bd d0 56 4a bc
       -0.058914155 0.0660019 -0.11004411 -0.012349799
0002c0 b7 59 ca bd 77 55 81 3b 48 49 1f 3d 20 57 a4 3c
       -0.09880393 0.003946956 0.038888246 0.020061076
0002d0 68 02 19 3d 7c ad ad bb 24 0d 2b 3c 3f 53 33 bd
       0.03735581 -0.005300222 0.010440145 -0.04378056
0002e0 e5 4e 83 bd 9d 3b b2 bc 20 73 6b bd e8 88 c4 bd
       -0.06411532 -0.021756941 -0.05748284 -0.09596425
0002f0 f6 c7 c5 bd f8 23 6f bd df 2b 17 bd 19 b2 1b be
       -0.0965728 -0.05838391 -0.036907073 -0.15204658
000300 d4 a6 48 bd a3 74 42 bd 81 50 d5 3c 8b 6e fb bd
       -0.048987225 -0.047474515 0.026039364 -0.12276944
000310 54 2d 0e bd 85 cd 14 be 9e 6f 55 bd c1 62 05 3d
       -0.034711197 -0.14531524 -0.0521084 0.032564882
000320 c3 b2 56 3d cc e1 04 be 96 d9 9f 3b 7b be c4 bc
       0.052416574 -0.1297676 0.004878233 -0.02401661
000330 9b 28 d3 bd d8 d5 c9 3c c8 7c 91 bd c7 c8 b8 bc
       -0.10310479 0.024638101 -0.07103878 -0.022556676
000340 3d 8a 33 bd 03 e7 71 bd 28 89 c7 bd bf 17 4d 3d
       -0.043833006 -0.0590582 -0.09742957 0.050071474
000350 e4 c0 8f bb 7a 1a c3 bd 15 d2 ec 3c 50 7a 97 bc
       -0.004387008 -0.095265344 0.028908769 -0.01849094
000360 8e 19 65 bc 28 92 04 3d 2e 37 c3 3c 36 73 a8 3a
       -0.0139831435 0.032365948 0.023830023 0.0012851718
000370 7e 87 5a 3d 46 54 d2 3c b8 12 d7 3b 75 47 11 bd
       0.05335187 0.02567495 0.0065635107 -0.035468537
000380 a5 6a c4 bd 41 c9 d1 bc b1 67 ce 3b 36 12 8f bc
       -0.09590653 -0.02560866 0.006298982 -0.017464738
000390 0c dd 1f be ab bf 08 be 78 27 6d 3c 1f 92 8c bd
       -0.15611666 -0.13354366 0.014474742 -0.06863808
0003a0 86 36 8d bd 06 78 c2 bd bd fa 80 bc 31 08 ce bc
       -0.06895165 -0.09495549 -0.015744561 -0.02515039
0003b0 16 40 15 bd b0 0e 0d be 67 ea 80 bc f5 88 8d bd
       -0.03643807 -0.13775134 -0.015736772 -0.06910888
0003c0 b1 b3 e9 bd c8 b6 92 3c 7e 3b a9 bd 82 d9 91 bd
       -0.114112265 0.017909423 -0.082633 -0.071215644
0003d0 9b a9 56 3d b3 39 17 bc ae 63 07 be 67 36 1c 3a
       0.052407842 -0.009230065 -0.13221619 0.00059590343
0003e0 49 37 c5 bc 0e 0d 08 bd 53 d4 68 bd d1 23 9a bd
       -0.024074214 -0.033215575 -0.056843113 -0.07526363
0003f0 bc f5 be bd b7 f1 cd 3d 43 ea 5d bd 65 98 13 be
       -0.09324214 0.10055869 -0.054178488 -0.14413603

bias f4 [40]
000000 93 48 6e 3b 8f c7 06 bd 60 c5 e8 3c 70 d2 25 be
       0.0036359176 -0.032905158 0.028414428 -0.16193557
000010 33 c0 e6 3d c9 a2 a0 3d 60 82 72 3d e5 06 eb bd
       0.11267128 0.07843549 0.059206367 -0.114759244
000020 40 29 0c bd 36 59 ac 3c 31 87 bb bd 88 be fb bd
       -0.034219027 0.021038633 -0.09156645 -0.122922
000030 c0 28 3d bd c7 e7 a7 bc 59 65 0c 3e 12 5d e1 3c
       -0.04618144 -0.020496262 0.13710536 0.0275102
000040 8e 78 e6 bd 91 14 0a be 48 a1 c7 bb b9 94 1d be
       -0.11253463 -0.13484408 -0.0060922243 -0.15388764
000050 ce 64 61 bc c1 27 05 bd 3d 58 9b bb bb cd ca bc
       -0.013756944 -0.032508615 -0.0047407434 -0.024756303
000060 cd 20 12 3e c4 a4 13 3d 37 af 19 3d 86 9b 1d bc
       0.14270325 0.036045805 0.037520614 -0.009619599
000070 89 de 05 be 31 59 a9 bb d4 11 59 3d 9a 71 19 bc
       -0.13073172 -0.005168103 0.052995518 -0.009365464
000080 f4 a2 fc bd b9 ba cd bd dc de 07 be 67 c8 29 bd
       -0.12335768 -0.1004538 -0.13268608 -0.041450884
000090 56 ee 2c 3d 02 1c 2d bd b6 a1 04 be fc 05 d0 bd
       0.042219482 -0.04226304 -0.12952313 -0.101573914

weight f4 [10, 40]
000000 1e 09 9d 3d 96 c3 c1 3d b2 f1 78 bc a8 cc c7 3d
       0.076677546 0.09461133 -0.015194343 0.09755832
000010 0b cd 4a be b4 f4 b6 bd 40 dd b9 bd a6 10 65 3c
       -0.1980478 -0.08933392 -0.09075403 0.01398102
000020 49 97 88 3d df e1 56 3d 3e 5d 7b 3d 03 a1 8f 3d
       0.0666948 0.0524615 0.06136822 0.070131324
000030 e9 2b 05 bd 33 7d ec 3d 0c 5b 5c be ff 14 2d be
       -0.03251258 0.11547317 -0.21519107 -0.1690254
000040 4f 01 6c 3d 55 7f 15 3d ea 8b 46 be 8c f0 3b 3d
       0.057618435 0.036498386 -0.1938931 0.0458837
000050 20 5c e4 bd cb 32 31 3e 84 e6 7f 3d 76 7c 56 bd
       -0.11150384 0.17304532 0.062475696 -0.05236479
000060 61 c0 8b bd 8d 0b ee bc a0 c2 5e 3d cc 81 34 be
       -0.06823803 -0.029058242 0.054384828 -0.17627639
000070 a4 08 b4 3d d4 80 1b be dc 8a 1c 3d 9d 44 a5 3d
       0.087907106 -0.15185863 0.038218364 0.080697276
000080 a7 19 7f bd ba 50 d6 3d 98 0a 6a 3c a5 83 2f 3d
       -0.062280323 0.10464616 0.014284752 0.042850155
000090 5d a6 35 be f0 94 4f 3d 13 dd ba bc 53 81 cd bd
       -0.17739244 0.050679147 -0.022810495 -0.10034432
0000a0 f7 b5 04 bd ac f6 18 bd 37 5d 6f 3d ee aa cd 3d
       -0.032400098 -0.03734462 0.058438506 0.10042368
0000b0 29 71 13 bd 1f b0 91 bd da f4 bb bc a1 d9 a0 3d
       -0.03599659 -0.071136706 -0.022943903 0.078540094
0000c0 78 73 78 bc ef 1d 50 be 64 9d 3e bd ea e4 08 be
       -0.015164249 -0.20323919 -0.04653682 -0.13368574
0000d0 e6 81 9b 3d 3a ec 7c bd d3 77 82 bd cc 31 71 bd
       0.075931355 -0.06174872 -0.06370511 -0.05888538
0000e0 df 7c b2 bd a5 20 94 bd d8 ef fb bc d7 66 d2 3c
       -0.087152235 -0.07232789 -0.030754015 0.025683803
0000f0 79 30 49 bd 3a 63 34 3d 33 ed ac bc 16 93 a1 bd
       -0.049118493 0.044039942 -0.0211092 -0.078893825
000100 f5 7d 1e be ed 3e a0 3d f4 54 16 3d 70 ee c6 bd
       -0.15477736 0.07824502 0.03670211 -0.09713447
000110 53 74 d4 bc 16 0c cf bd cd b0 87 3d 34 4b bf bd
       -0.025934374 -0.10109727 0.06625519 -0.09340516
000120 53 8e 3b 3e f6 b4 11 3e 8b 92 be 3d 3f ad 62 3d
       0.18316011 0.14229187 0.093052946 0.055341
000130 09 63 ad 3d 48 b1 33 be 6e e3 00 be 9f 24 94 bd
       0.08466155 -0.17548096 -0.12586758 -0.072335474
000140 1e ee 4e be 55 2e 13 bd d6 a0 33 bd bb 7b 10 3d
       -0.20208022 -0.035932858 -0.043854557 0.03527425
000150 2e 21 00 3e c5 c3 31 bd 9d a6 2b be 30 9b 02 be
       0.12512657 -0.04339959 -0.16762777 -0.12754512
000160 0d 45 92 bd fd 1f e3 bd 2b 05 fc bd 43 cd bb 3d
       -0.07142077 -0.11090086 -0.12305673 0.0917001
000170 bf 70 6d 3c c4 85 7a bd 6e 43 14 be 1f 97 61 bd
       0.014492213 -0.061162725 -0.14478847 -0.05507576
000180 d7 5a 11 be 13 72 1a be da 86 a5 bd fd 3b e0 bd
       -0.14194809 -0.15082578 -0.080823615 -0.10948942
000190 c0 99 08 be 50 ca 19 bd f5 fd ca bd 01 9e 6b 3c
       -0.13339901 -0.037546456 -0.0991172 0.014380933
0001a0 e1 5b aa bd 49 da 42 bd 8e bc 2b be bc 81 fb bd
       -0.08318306 -0.047571454 -0.16771147 -0.12280604
0001b0 54 d7 b3 3d d6 eb 5c 3d 37 54 36 be ff 5f df 3c
       0.08781305 0.05393585 -0.17805563 0.027267454
0001c0 0f c9 5a be 47 bc 1b be ef 69 de 3d b3 5d 6d bd
       -0.2136576 -0.15208541 0.10860049 -0.057950687
0001d0 af 7c ad 3c e7 e3 0a 3d 09 c5 4e ba 12 93 97 bd
       0.021177618 0.03390875 -0.0007887637 -0.07401098
0001e0 ad bb 99 bc e5 c0 70 3d fe 23 41 be 50 5b e5 bc
       -0.018766249 0.05877771 -0.18861386 -0.027997643
0001f0 1a 9c 03 3b d5 38 96 bc 1d 84 b4 3d 7d e5 04 bc
       0.0020082057 -0.018337646 0.08814261 -0.008111355
000200 e9 9b 1e be 25 57 dc 3c 84 9a 25 bd 92 40 4f bd
       -0.15489163 0.026897023 -0.04043056 -0.05059869
000210 f9 06 b6 3c a6 48 c4 bd 95 2a 67 be 2b 21 46 3c
       0.022220122 -0.09584169 -0.22574838 0.012092869
000220 82 95 93 bc 72 8a 1b be 45 96 ad 3c 07 13 21 be
       -0.018015627 -0.15189531 0.021189818 -0.15729915
000230 8c d2 fb 3c c6 13 bc 3d 58 02 4d 3d 30 89 d6 bd
       0.030740045 0.09183459 0.050051063 -0.10475385
000240 e7 37 19 be 06 95 9f 3c 10 3e 1f be 60 2b d1 bc
       -0.14962731 0.01948024 -0.15551019 -0.025533378
000250 2e 10 71 bd 2d 9f 04 be bb 84 24 3d 99 da 00 be
       -0.05885332 -0.12951346 0.040165644 -0.12583388
000260 02 9a 69 3d 83 b8 b4 3d 56 c7 f4 3b 2d a0 02 3d
       0.05703164 0.08824255 0.0074700518 0.031891037
000270 42 fd 17 bd 4e 85 46 bd 15 c7 06 bc a8 65 28 3c
       -0.03710676 -0.048466973 -0.008226176 0.010278143
000280 89 5a b6 bd 78 51 0a be 7b 19 95 bc 08 d1 4c 3d
       -0.08903987 -0.1350764 -0.018200627 0.050004035
000290 fb 11 21 3c 03 ef 0a be d3 02 14 be b7 a9 1d bd
       0.009830947 -0.13567738 -0.14454202 -0.03849193
0002a0 80 83 23 be 1f c6 7d ba 15 ed 25 ba b8 74 a2 3d
       -0.15968132 -0.00096807064 -0.00063295785 0.079324186
0002b0 02 9f 90 3d 7f d8 38 bb 75 0e 13 be b5 4f 51 be
       0.07061578 -0.0028205214 -0.14360984 -0.20440562
0002c0 86 26 e2 bd 45 68 44 be f2 ef 8d 3b 18 a2 aa 3d
       -0.11042504 -0.191804 0.004331582 0.08331698
0002d0 b5 64 5c be ba 68 da 3c 2e 3e 0f be 5d 12 b2 3d
       -0.21522792 0.026661266 -0.13988563 0.08694909
0002e0 29 9c 3e be 12 49 b3 3d 38 f1 3a be 46 cd 49 be
       -0.18614258 0.087541714 -0.1825608 -0.19707212
0002f0 c3 e7 27 3c 64 fd b1 3d bb 4d d1 bc ed c8 76 bd
       0.010248127 0.086909086 -0.02554976 -0.06025021
000300 01 c9 7b 3d 85 42 1e 3d c3 5c d2 3c 49 93 0e 3d
       0.06147099 0.038637657 0.025678998 0.03480843
000310 bc bc 34 be 7e e8 02 be b7 15 1f bd bc a6 a3 bd
       -0.17650121 -0.12784001 -0.03883907 -0.079907864
000320 6a e9 20 be 94 0b aa bd e8 32 99 3c 26 e9 8e bd
       -0.1571404 -0.083029896 0.018701032 -0.06978063
000330 c9 af d2 bc 4c 2c 4d be 59 f2 d5 bd 46 7d 6d be
       -0.025718587 -0.20036429 -0.10446615 -0.2319232
000340 13 c6 ca 3d 53 8c 9d bb be 49 c7 39 a1 df 03 be
       0.09901061 -0.0048079877 0.0003801118 -0.12878276
000350 8f 04 d0 bc 9d 74 9f bd 3e 84 a8 bd 07 7f 58 3e
       -0.025392799 -0.07785914 -0.08228348 0.21142207
000360 2a 00 e3 bd ae 00 a0 bd b9 0f 23 3d ae 76 15 be
       -0.11084016 -0.0781263 0.039809916 -0.14596054
000370 f9 d0 e8 bd 57 ad 4c bd 8f 3e 4a be b1 26 30 3d
       -0.11367983 -0.049969997 -0.19750427 0.04300565
000380 1f 5c d0 ba 2e 40 c3 3d 1e 5f 3d 3e e6 a7 2f be
       -0.0015896595 0.09533726 0.18493316 -0.17153892
000390 7e 05 2d 3e ea 29 43 be 80 c9 d3 3d ac 38 21 3d
       0.16896626 -0.19058958 0.103411674 0.039360687
0003a0 77 be 4a 3d 6c 64 89 bd 04 32 a7 3d ad d7 ec bc
       0.049498048 -0.06708607 0.081638366 -0.028911436
0003b0 59 d8 5e bd a4 9c 4b be 26 ff d8 bd 7f 76 ac bd
       -0.054405544 -0.19883972 -0.10595541 -0.08421039
0003c0 11 a2 3b be 1f 66 04 be 5a 92 40 be ea a4 27 be
       -0.18323542 -0.12929581 -0.18805829 -0.16371503
0003d0 24 15 58 3d 67 a0 e9 bd 6d 85 72 3c ab 33 89 bd
       0.052754536 -0.114075474 0.014802319 -0.06699308
0003e0 2f 4f e5 bd c7 e0 76 bd 74 17 49 be 3c 0d 0b 3c
       -0.11196744 -0.060272958 -0.19637853 0.008487042
0003f0 0b d1 ff bd 79 d9 64 3d d0 ce 01 be eb a5 79 3d
       -0.12491044 0.05587146 -0.12676549 0.060949247

bias f4 [10]
000000 64 e1 1c be 3c 1a dc 3d 42 c0 63 be 5a 89 17 be
       -0.15320355 0.10747191 -0.2224131 -0.14798489
000010 ca 43 d2 bd d7 e1 18 be a2 20 ba 3c d1 21 8c bd
       -0.10266836 -0.14929901 0.022720639 -0.068423875
000020 99 ce 8b bd 40 df e3 bd
       -0.06826515 -0.11126566

weight f4 [2, 10]
000000 ef 3d 77 be 42 cd 2e 3e 7b ce 14 3e 24 17 8a 3e
       -0.2414472 0.17070487 0.14531891 0.2697078
000010 d8 02 0c 3e 48 27 05 3e ea fa 19 be 89 39 54 3d
       0.1367296 0.13003266 -0.15037122 0.051812682
000020 72 8a 94 bd bf 8c 49 be 1c b7 09 be 23 c8 a9 3d
       -0.07252969 -0.19682597 -0.13448757 0.08290126
000030 e4 da 81 bd d1 3b 27 bc 58 8d 3a be 8d f0 55 3d
       -0.06340578 -0.010207132 -0.18217981 0.05223136
000040 93 bf 5c be c0 21 60 bc 02 ed 01 be 30 dd 87 3d
       -0.21557455 -0.013679922 -0.12688068 0.06633985

bias f4 [2]
000000 f8 5c 63 3e ed 85 45 3c
       0.22203434 0.012055856
